encoder_tfidf.pt (torch, 352974 bytes, 24 tensors)

network.0.layers.0.causal_conv.0.bias f8 [20]
000000 42 2d 0f 1b ce ab d4 bf 3a 2a 6b a4 2f 49 be bf
       -0.32298615114696727 -0.11830423130155845
000010 1f ed e1 6b 0e 4d ce bf d4 1c fd 18 50 17 ca 3f
       -0.23672657268239392 0.2038364526763191
000020 ab aa 53 f9 e0 46 a5 bf 2f 37 b3 10 ca e2 e2 bf
       -0.041556387362864676 -0.5901842428372442
000030 da f4 72 92 26 68 a0 bf 4f 43 68 b5 63 a9 e4 3f
       -0.03204460656841386 0.6456774275885467
000040 d9 70 df 9e ec 0e de 3f d7 7b a1 69 8b 03 e3 bf
       0.4696609069340077 -0.5941826880551798
000050 57 c5 5f 16 05 ba e2 bf d3 8a 08 26 2e 21 d3 bf
       -0.585207503985809 -0.29890016283222315
000060 c1 bf 82 cd 6d b7 db 3f e2 b7 cb 9d 75 f4 cc 3f
       0.4330706126156621 0.22621031002876096
000070 81 57 79 84 c7 a0 d7 3f da 5a d3 5a 75 13 70 3f
       0.36918819367326 0.003924806992663144
000080 55 1f c2 8f 24 f2 d4 bf c1 60 77 92 43 86 c7 bf
       -0.32727922476668897 -0.18378491069484507
000090 be b6 db 66 bf 3f e1 3f c2 d1 2f 9c 50 4d d8 3f
       0.5390316971731506 0.3797189259778656

network.0.layers.0.causal_conv.0.parametrizations.weight.original0 f8 [20, 1, 1]
000000 bb c7 c8 33 aa 77 d9 3f df 9b 33 0e 16 28 dc 3f
       0.3979287629800827 0.43994666468500826
000010 61 94 a4 b5 b8 e1 e1 3f fb 5f 42 d2 7c 80 e2 3f
       0.5588038966858556 0.5781845194460397
000020 de a9 19 13 87 43 df 3f 6d df 05 e5 a9 e8 e2 3f
       0.48849655976542106 0.5909013245682054
000030 b2 00 e2 0d ab d4 e3 3f 92 de 15 a4 e2 b0 e2 3f
       0.6197104712628259 0.5840924458306793
000040 fd 2f 2e 8a 2b 73 e6 3f e0 fd 66 7d 9c 7a d4 3f
       0.7015588473163913 0.3199835991508433
000050 fd 9a 27 c1 a2 12 d9 3f 90 e2 0e 85 a6 9d dc 3f
       0.39176243651165504 0.44712222093543463
000060 eb 7f e7 c7 30 41 e5 3f 35 b3 6a a2 7c e4 e4 3f
       0.6642078308468603 0.6528914615824762
000070 b0 da 94 e3 d1 75 e0 3f af 07 ad a8 e0 aa e0 3f
       0.5143823094320705 0.5208590788317816
000080 33 2b f2 32 28 14 d2 3f 41 15 6c d9 e8 93 dc 3f
       0.28248028731529756 0.446527683569304
000090 c9 64 c3 66 3e 0a ea 3f 3c 74 52 27 18 07 d8 3f
       0.81375045844029 0.3754330047611949

network.0.layers.0.causal_conv.0.parametrizations.weight.original1 f8 [20, 1, 3]
000000 a7 32 a5 fc 55 e5 68 3f 96 99 bb c4 5f 6e dd 3f
       0.0030390433723027246 0.4598617001742239
000010 21 77 3e e7 82 92 9b 3f 6a bc c0 d9 7f c4 a2 bf
       0.026926083911909097 -0.036655421572839256
000020 27 84 10 f6 ce 31 dd 3f 11 10 cc 9c 46 3c 97 3f
       0.45616506604898394 0.02269087154401467
000030 1a 70 1d 42 4e 37 d1 3f cd 22 d0 e3 9b a0 de bf
       0.2690005918173043 -0.4785527920471793
000040 16 2c 82 2f 00 87 c2 3f 24 8a f0 c2 41 93 71 3f
       0.14474489516973738 0.004290825730125767
000050 87 5a 46 27 de 52 db 3f 89 13 8b 3d 44 6a db 3f
       0.42693284831458594 0.4283609963425126
000060 54 c0 4d 28 6f ce d3 bf d0 a6 75 6d 60 ac ce bf
       -0.3094747441855408 -0.23963551850038423
000070 ab 37 6b 9c 4e 35 da 3f c4 f7 ec 16 91 59 d4 3f
       0.4095036056067964 0.31796672095140033
000080 a4 bf 98 fa 61 3f e1 3f 3c 0f a0 00 3f 33 b6 3f
       0.5389871496645253 0.08671945348038163
000090 2f f7 5b a0 01 a4 e0 3f 34 c0 13 09 87 c0 d8 3f
       0.5200203067795196 0.38675094496193485
0000a0 d9 81 8b 62 45 48 c8 3f 96 23 90 d8 b1 a2 d0 3f
       0.1897055369545473 0.25993009709105175
0000b0 38 5b bd 45 3b 34 d3 3f d2 48 88 be 9d 39 de bf
       0.30006295977129893 -0.4722666130702581
0000c0 b8 0c b7 19 23 4b e0 3f df 6f cd c9 f6 2e d8 bf
       0.5091720106360276 -0.3778664561011719
0000d0 2f 82 00 cb e2 0d de bf 01 7f bf d7 71 3c a1 bf
       -0.4695975286904596 -0.03366428145068135
0000e0 a0 85 51 24 85 28 d9 bf fd a5 59 d9 0f fb 51 bf
       -0.3930981497452084 -0.0010974554801584928
0000f0 0b e8 70 5c da 99 d8 3f ce 3a 0b d9 27 c2 c2 3f
       0.38439044024892216 0.14655016038746854
000100 5e 7b 25 7f e6 bb bb bf a1 b5 06 0b f3 91 dc bf
       -0.10833588222656718 -0.446408043639929
000110 7d 43 39 82 7e 2e c7 3f 29 20 4a e1 3b 27 b7 3f
       0.18110638960436268 0.09044241190179093
000120 45 cb 57 5b 06 81 d2 3f 34 4f 46 95 72 e3 e2 bf
       0.2891250507374717 -0.5902645984192305
000130 78 12 34 2d ad 9d c7 3f 4e 0d 74 72 6a 23 df bf
       0.1844994040221939 -0.4865366094311029
000140 37 66 1a 56 4d 4d d1 bf 28 6d e6 51 6b 4c db bf
       -0.27034314545162225 -0.42653925893837874
000150 f4 72 bc 1b 69 44 b8 3f 4e 39 df c0 1c 24 e0 3f
       0.0947938626017722 0.5044082419424656
000160 67 fc a0 51 8e af cc bf 1d cd 1a 0f 89 21 b7 3f
       -0.22410754190238721 0.09035545939223195
000170 55 1e a6 6f fd a4 c6 3f 86 b5 43 6e 98 d9 dd 3f
       0.176910094753327 0.46640597122208083
000180 0c 71 7b f1 f4 45 af 3f d7 25 b7 90 d0 6f 9f 3f
       0.061080603101546144 0.030699976761558858
000190 81 e6 60 45 8a d9 d5 bf 9a e4 e4 5e cd ac c0 3f
       -0.3414025952839453 0.1302735055303728
0001a0 d5 78 cf 33 7e 71 cf 3f 4f 66 27 37 85 26 d9 3f
       0.24565103082472342 0.3929760969745972
0001b0 b3 c9 18 f7 a1 af d5 bf e6 db 64 5a bd e2 e0 3f
       -0.3388447678618391 0.5276781812198095
0001c0 59 ca 2c 8c 75 a1 e2 3f a9 68 ce ae e3 b2 9d 3f
       0.5822093713562239 0.029002721351937186
0001d0 26 b2 1e 32 87 80 c8 3f 5e d3 a0 6b 70 3f dc bf
       0.19142236659298922 -0.4413720179612052

network.0.layers.0.causal_conv.3.bias f8 [20]
000000 88 a7 be 71 df 48 c3 bf 81 7d 8e 5e a8 99 b1 3f
       -0.15066140226309366 0.0687508803225594
000010 4a 52 27 51 b6 d1 a1 3f 94 d2 d5 ef 5e 65 b2 bf
       0.0348031019272282 -0.07185929637291572
000020 a9 8e b4 2d f5 99 c3 bf ff 74 2a 6f 63 d6 a1 3f
       -0.15313591701225462 0.03483877880101182
000030 8f e2 15 c8 87 76 b9 bf 5e 10 98 21 22 95 c2 bf
       -0.0994648803224527 -0.1451761878998949
000040 6b 96 5d 92 e1 fb 7d bf 5e 10 61 59 58 f0 b4 bf
       -0.0073202906986345835 -0.08179237539394665
000050 21 0f 80 7e 8d 43 8f 3f 2b f7 69 ab f6 b9 c9 bf
       0.015265565321903875 -0.20098765725918474
000060 59 7f b8 c3 dd cc b8 bf f6 9c aa f0 bf ef bb bf
       -0.09687601116502033 -0.10912704110761581
000070 17 f4 d8 ea 5c 68 a3 3f 65 65 f8 ef 41 41 98 3f
       0.037905601184753994 0.02368643786585291
000080 1c b5 83 97 0d 4a a5 3f cf 40 45 0e 9b e6 87 3f
       0.041580605264110754 0.011670314190866197
000090 8e 28 d1 f2 16 bb bd 3f 7b 34 51 21 50 09 c1 bf
       0.1161360113921168 -0.13309671046082258

network.0.layers.0.causal_conv.3.parametrizations.weight.original0 f8 [20, 1, 1]
000000 23 ae e4 d5 1e 72 dc 3f 7b 5f 4f c0 9e 66 e4 3f
       0.44446535957351524 0.6375268703513791
000010 48 0c d6 cd e2 8d e0 3f a7 c2 30 75 a3 80 e2 3f
       0.5173200626599135 0.5782029427410479
000020 e5 89 8f e4 58 04 e2 3f 61 66 29 98 81 96 db 3f
       0.563030668647397 0.43106117114584747
000030 7c 3c 40 a7 5e 87 e2 3f 0a bf e4 41 9f 47 e1 3f
       0.5790246264094914 0.539992932031937
000040 fb b8 f0 df 7f 03 e2 3f bb 42 bb ae 0e 57 e3 3f
       0.5629271863779474 0.6043771183704715
000050 e4 ab 85 71 76 e1 df 3f 40 43 98 44 30 57 e0 3f
       0.4981361492743288 0.5106431331388208
000060 27 89 dd 56 fe e2 e2 3f e7 75 f8 0e 4f e4 e2 3f
       0.5902091690625512 0.5903697292703186
000070 e3 d6 05 df 95 dc e1 3f 1e 5d 7f b8 0f 4c e0 3f
       0.5581769328989278 0.5092848399607737
000080 02 f2 b6 a8 3d c4 e1 3f 7a 41 ae e4 8d c2 e1 3f
       0.555205182572138 0.5549993006152782
000090 6e 2a 51 cb e8 dc e0 3f 91 8d 06 1f 84 8a e2 3f
       0.5269664736782269 0.5794087034195617

network.0.layers.0.causal_conv.3.parametrizations.weight.original1 f8 [20, 20, 3]
000000 86 db 24 26 e5 23 bd 3f 3b ec 50 da f8 37 a1 bf
       0.11382896596192724 -0.033630158090510474
000010 34 91 17 a0 d8 8c b4 3f 82 33 f6 af 09 ab bb 3f
       0.08027414234635871 0.10807858034077181
000020 32 3e 5e 79 c0 fa 99 bf 71 1a 91 72 9d 8c be bf
       -0.025370604903910805 -0.11933311507264378
000030 36 ed d5 e2 a2 33 c6 3f 3e 29 d7 28 17 4d a5 bf
       0.1734508140178634 -0.04160377858677798
000040 b0 81 cf c0 bf 49 a2 bf d5 8a 0e 94 6f c7 a4 3f
       -0.035718910490462163 0.04058407480558449
000050 2e 6e a1 ea 21 83 b6 bf 6e 86 62 2b ff 8c 7e bf
       -0.08793842294965579 -0.007458683734655842
000060 f3 b3 6d b5 6e 29 ba 3f 69 e4 51 ba 3a ea ae 3f
       0.10219470910460852 0.06038077854550112
000070 a0 2f 8b 51 f6 2f b0 3f a1 33 df 61 4b 16 a8 bf
       0.06323184481442334 -0.047045093247653165
000080 f9 d4 60 42 75 97 94 3f 2b 9c 3c 21 cf cc ad bf
       0.020109016586691706 -0.058203194434377124
000090 54 e5 6b eb 3f 9a ac bf 0e 9d 6f 50 37 76 b2 3f
       -0.05586433171078889 0.07211633409280102
0000a0 2b f2 22 7a f5 bb b9 3f dc 87 61 90 c4 f6 ab bf
       0.10052427512977917 -0.05461706411803366
0000b0 35 a8 3a 13 dd e8 86 3f d6 0c 66 c4 fa 13 c8 bf
       0.011186339520765734 -0.18810972776200313
0000c0 c9 4f ee 89 b1 00 a4 3f b0 ab af 27 c7 4f ab bf
       0.03906779106833331 -0.05334303245020722
0000d0 b0 3d 0a 5c 9a 8b 9f bf 4c c2 65 4f 9a be 79 3f
       -0.030805980556179058 0.0062852885952087816
0000e0 88 25 c4 d6 f9 9a bd bf 8a 53 71 6f 4d ee b6 3f
       -0.11564599507632611 0.08957370730179384
0000f0 f4 6c 1e 40 40 d4 8d bf 6e a0 19 74 7f f1 8f bf
       -0.014564992863418592 -0.01559733937320137
000100 ec 7d 62 f2 ba d0 bf 3f 70 fd 1f 56 a0 bc b0 bf
       0.12427872102352183 -0.06537820913944414
000110 0a 2a 14 ba 5d 39 95 3f 12 07 a9 1b e3 dd a7 bf
       0.020726646883341394 -0.04661473953866681
000120 50 2d 75 f2 6a 2a b9 bf 94 91 fc 4c e2 f4 ab 3f
       -0.09830349368455882 0.05460269155290401
000130 2b e5 40 32 88 d4 a5 3f 55 ee 79 3c 9f 7d ca bf
       0.04263711560674673 -0.20695867970413198
000140 d2 8a 3c 58 6b 0a cd 3f 6d e8 33 88 f7 02 c7 3f
       0.22688047226355096 0.17977804327512406
000150 68 54 f1 8a b0 70 70 bf 10 04 bd f7 31 72 a3 bf
       -0.004013719196412337 -0.037980615130898454
000160 2f 4d 61 28 29 f9 aa bf 80 b8 78 06 7a 64 a6 3f
       -0.05268219583435962 0.04373532608984565
000170 e1 10 1d e4 89 7a 8b 3f b8 96 60 7e b6 62 ad 3f
       0.013417317651722662 0.05739374439899109
000180 af 1a 36 32 34 95 c8 3f 19 e4 5b 59 a3 0f 9d bf
       0.19205334140516103 -0.02837996704963439
000190 06 f0 70 f7 6a 9b c0 3f f4 cc fb 56 3c 73 a2 3f
       0.12974297601783763 0.036035428636660344
0001a0 5c df d7 bb 77 8b 31 bf 69 ef 69 00 49 32 bb bf
       -0.0002677123373753165 -0.1062360406885411
0001b0 05 70 09 60 2c 63 be bf 6d 47 fe 4c 51 de 84 3f
       -0.11870076508188283 0.010189662134312017
0001c0 36 1c 3e 6e b7 0b b8 3f c4 04 0d 28 d9 6a b8 bf
       0.0939287799975411 -0.09538037517360737
0001d0 a5 4a 0f 19 2e f1 83 3f ab 46 0a f1 df 96 c1 bf
       0.009737358226549484 -0.13741683263338209
0001e0 4d fa 4f d6 a8 f2 92 bf aa 3d 8a 49 f2 60 b0 bf
       -0.018503797607986084 -0.06397928519640197
0001f0 78 1a a8 11 2c 8c 77 3f 18 38 2b a1 42 05 9e bf
       0.005748912949008138 -0.029316941344227215
000200 91 78 49 dc 7c 31 ac bf 95 4e 43 3d 8a b9 8e bf
       -0.05506506146478885 -0.015002326960178261
000210 58 cb af 88 86 6d 9c bf 14 02 9a 3b 45 bb 61 bf
       -0.027761556713765984 -0.0021644928172579545
000220 fa d9 66 fe 65 31 9c 3f 95 71 ff 2c fd 77 89 bf
       0.027532189991427793 -0.012435892043804833
000230 bf fb 7a 2c 0a a3 b0 bf 10 4d 01 af 49 a3 b0 bf
       -0.06498778902003631 -0.06499157450280202
000240 8f 1a d9 39 5f dd b0 3f 5d 24 5a 85 2f 0f 9d bf
       0.06587786829286756 -0.028378241075675315
000250 78 c7 92 c7 d9 77 ac 3f c5 8a 3f 32 64 f5 9b 3f
       0.055601888286573364 0.02730328137102835
000260 c0 37 f4 5a 3f ea 75 bf 30 7b 8d eb 66 1a b7 bf
       -0.005350348931882409 -0.09024661303326975
000270 7b c7 2f 2f bb 24 bc bf 8f ce e8 9f df c4 69 3f
       -0.1099354734613182 0.003145634428870121
000280 91 a1 86 cc 74 1b b3 bf 66 eb 33 2a 34 f5 7f 3f
       -0.07463769906337904 0.007802203911746774
000290 8b d8 af 35 e7 8d ae bf 1f c1 63 cf 50 20 c2 3f
       -0.05967638521535531 0.1416111958165027
0002a0 7b 72 79 64 5e 74 b2 3f 78 22 57 2a 94 f0 a2 bf
       0.07208814576137883 -0.036991720360281144
0002b0 69 9f 5b 62 ca 1f 9c bf 9a b5 57 dd 93 c1 b1 3f
       -0.02746502137497889 0.06936000970718795
0002c0 2e 96 9a 0b 3e 2a 97 bf a9 af 22 2c 3f bf a1 3f
       -0.02262207933258347 0.03466222203982678
0002d0 2f 2c 95 3a b8 9d 92 bf 08 e1 21 f0 af 0c 95 bf
       -0.018179777694325047 -0.020556210547938242
0002e0 3e d2 30 5b ef 08 b5 bf 4d 6d 4c 44 33 b8 af 3f
       -0.08216758705459257 0.06195221146318861
0002f0 eb 83 78 11 20 90 8e bf 09 d9 9d 7d 9a 59 69 bf
       -0.014923334630170223 -0.0030944840809140656
000300 98 8f 2b df a4 17 91 bf 48 82 ae c7 7e e3 97 3f
       -0.016691757317758155 0.023328762948610554
000310 d4 8c ec 46 a1 cc aa bf af f2 29 0d d4 cf c4 3f
       -0.05234245291492248 0.16259241717115944
000320 c5 fd 41 c3 9f d9 c4 3f db a9 04 95 84 4c 63 bf
       0.16289135965415205 -0.002355822514933365
000330 a7 f6 5e e2 5f 55 73 bf 9c b8 16 26 e1 c0 b2 bf
       -0.004720091388603776 -0.07325560741330367
000340 1c 81 c3 d5 b1 f5 81 3f e6 62 36 17 0d 40 b4 3f
       0.008769406639146875 0.07910234276495096
000350 79 e3 aa 30 b5 c0 a3 3f 45 27 60 85 fd 05 a6 3f
       0.03857961863599874 0.04301445248718364
000360 8c e0 0f bf 4e e0 82 3f eb af a0 a4 9d f1 11 bf
       0.009216895299673199 -6.845020939810736e-05
000370 85 7e 48 33 c0 ec 7e 3f fb 27 59 61 fe 9e 95 bf
       0.0075500018906776755 -0.021114325229326863
000380 fb cd cf 0d 5a 91 a1 bf 95 25 19 35 7d 25 a3 3f
       -0.03431207102394392 0.03739539406940221
000390 8d 53 7b 2f d4 fc a3 bf 5b ef 4f d8 29 db 90 bf
       -0.03903830604182366 -0.01646104223981069
0003a0 50 26 2e 26 74 3f b4 bf c6 9e 53 a4 81 c9 b6 3f
       -0.07909322673926877 0.08901224386101622
0003b0 16 dd 76 be 05 9d b8 3f 3d f2 9c a9 7a 49 be 3f
       0.0961459722519645 0.11830870285934565
0003c0 ae 1b f4 cd 7b 34 b2 3f b4 d2 92 56 35 86 89 3f
       0.07111333635485437 0.01246301336718978
0003d0 34 20 c8 32 f6 df ba 3f 99 b9 74 c7 9b 85 b4 3f
       0.10497988452709778 0.08016370410471153
0003e0 e6 4a 81 42 80 08 93 3f a7 03 3c 2b b2 84 b8 bf
       0.01858711629786116 -0.09577477984932035
0003f0 0b e1 ab 07 57 94 b0 3f 59 a9 35 88 86 14 bb bf
       0.06476348817148307 -0.1057819445174223
000400 65 dd 9d 34 7a 78 b1 bf 26 fe 3e 1a 1d e3 ad 3f
       -0.06824458870493329 0.058373364881387155
000410 e6 d9 4c ba fb 13 b5 3f 17 84 5f e2 5e 08 83 3f
       0.08233617113442157 0.009293309481963203
000420 4f 88 81 ee f7 b9 c0 3f ed a2 19 93 03 6c b2 3f
       0.13067530771064859 0.07196066228210514
000430 b5 44 07 e5 b7 18 bb 3f 13 cf 75 8c 65 00 a3 3f
       0.10584592191232185 0.03711240138627949
000440 2c d6 d1 02 95 b6 b4 bf 40 35 3a de 31 35 86 3f
       -0.0809109813579531 0.010843648523656158
000450 0b ef 5c dc 3e ba 96 3f 4a bc f3 2a ac 6a c4 bf
       0.02219484539021636 -0.1595053872801791
000460 64 77 da 00 99 22 b6 3f b7 5a 8f ea 22 48 bc bf
       0.08646541853746964 -0.110475713983173
000470 c9 19 6b fa 39 9c 9d bf 86 ea 79 4e 56 ed b0 bf
       -0.028916269215892663 -0.06612147727893544
000480 a1 10 d1 e1 fc 5a 98 3f df 8c 16 87 41 bf 9b bf
       0.023784590990786673 -0.027096771116373538
000490 87 f1 95 64 9d a3 b6 bf a3 32 72 d9 10 12 be 3f
       -0.08843406396585439 0.11746316250555337
0004a0 27 01 4d e1 75 ac a8 3f d6 29 79 50 cf 60 c2 bf
       0.048190768959559364 -0.14357940129623498
0004b0 a6 76 da 91 5f 9e a4 bf fc f3 88 84 06 53 b0 3f
       -0.04027079253613168 0.0637668679782592
0004c0 e7 bb e7 b6 4f 10 be 3f 63 3c 5f fd 28 d2 b7 bf
       0.11743639197787524 -0.0930505388816854
0004d0 2b 47 b8 b8 04 f1 b6 bf 12 7b f7 2c f9 79 c6 bf
       -0.0896151495910799 -0.17559733100548464
0004e0 2e 18 fe 37 44 ad 89 bf 5e 49 3a 0d 97 24 c3 3f
       -0.012537510832555023 0.1495541395748416
0004f0 75 78 20 5b b6 d7 b5 3f cc 33 78 e8 ba 54 c0 3f
       0.08532275891090697 0.12758575774242187
000500 94 9a 5c 07 dd 43 c5 bf 3d 7f 19 0b bd f7 c0 bf
       -0.1661335264154401 -0.13256037752125308
000510 06 74 53 1a c7 79 a6 3f 3f e6 fa 18 25 97 ae 3f
       0.0438978404651849 0.059746894168210656
000520 4d d3 54 63 e6 3f b4 bf cf 4b 1d bb dd fa af bf
       -0.07910003590661781 -0.0624608317290477
000530 23 44 2e c6 03 4c 8a bf b4 e1 8c 83 87 1e 6a 3f
       -0.012840299115653825 0.003188385653995785
000540 ae 6d 6a 10 00 cf c0 3f b7 08 66 0b e5 8c b9 3f
       0.1313171463160478 0.09980613258634007
000550 07 51 c5 6f ae c8 c5 3f 1d 06 31 b8 c5 52 a1 bf
       0.17018681008870137 -0.03383462785178557
000560 43 2f cc 05 39 89 a9 3f 40 59 36 d7 06 59 c1 bf
       0.04987505145808637 -0.13552937992489866
000570 b1 17 4e da 00 1b 95 bf ac c5 b8 c2 04 7d a4 bf
       -0.020610822033198143 -0.040016316194292884
000580 29 db d5 43 bf e8 b7 3f 64 e1 86 00 8b cb a7 3f
       0.09339518934380621 0.04647478467399216
000590 a7 4c 55 72 bd f9 a4 bf 94 83 a2 74 d5 c4 b9 bf
       -0.0409678651873489 -0.10065969560174742
0005a0 99 51 02 2c be 13 90 3f 32 23 82 c1 a5 9d bc bf
       0.015700313030338007 -0.11178050970387401
0005b0 c0 2f 3c 0f 6b f3 bb bf 8a c9 5d 21 06 b6 a3 bf
       -0.10918301698637745 -0.038498107502976955
0005c0 35 38 37 fe b2 02 a9 bf a1 be be f9 9d 02 b4 3f
       -0.0488487181970502 0.07816493365566625
0005d0 ce de e0 2c 84 3b 9c bf 77 20 51 0d 1e 39 b4 bf
       -0.027570786704216137 -0.07899654221648854
0005e0 d1 2f e3 e0 0b 01 b6 3f d0 2f 35 27 77 27 bb bf
       0.08595346680084438 -0.10607094485493396
0005f0 1b 58 14 e7 0c ae b5 3f cf d6 c9 a7 be 36 af bf
       0.0846870483549939 -0.0609645442790857
000600 bc 76 31 d7 20 dd aa 3f f5 f3 23 71 4d 98 a2 bf
       0.052468324917510384 -0.03631822591885473
000610 32 59 bd c2 f0 ff a2 bf 72 c5 0f 80 00 53 be bf
       -0.03710892083351992 -0.11845400930885377
000620 44 04 a3 61 09 1e a6 3f 34 54 21 b9 93 55 a1 bf
       0.0431979114232566 -0.03385602602853802
000630 80 32 b0 67 14 84 b1 3f 93 9b cd 62 33 cc 9d 3f
       0.06842162639095228 0.029099276452508937
000640 e2 43 c6 a8 56 dd 63 bf 0d e8 4b 57 36 25 c1 bf
       -0.0024248783649416386 -0.13394812834286576
000650 6a d9 b8 08 a9 d8 b1 3f 6c 95 2d 30 c1 d6 c1 bf
       0.06971222365323163 -0.13936629154629132
000660 a9 ed 60 ee 51 d2 af 3f 09 71 fa 1f 7a 7d 91 bf
       0.06215148959060041 -0.017080219461250077
000670 26 df e4 17 22 ff 9d 3f f2 fe e9 bd 2a c5 b8 3f
       0.02929356833303056 0.09675852905820273
000680 94 ba 20 b9 22 6e ac 3f 07 23 29 f7 07 a5 c2 3f
       0.055527768229116564 0.14566134994881727
000690 27 b9 de ef 31 ee a6 3f 0e b0 2d ef 57 4b 6f bf
       0.04478603413677922 -0.00382010626474561
0006a0 8f 24 a6 de 06 83 9b 3f c6 c4 7f 95 b4 54 91 3f
       0.02686701520864126 0.016924687981320095
0006b0 ea 69 d9 a1 5a a8 ad 3f 84 25 4f eb 2e cf c3 3f
       0.05792506433200002 0.15476023187356358
0006c0 e3 f9 89 e1 bd 04 b0 bf 7b c9 a2 cd c0 ee b3 3f
       -0.06257235294649592 0.07786183376700777
0006d0 a2 77 79 46 02 ae c3 bf f7 3e 2f 55 ff 38 be bf
       -0.15374782982956697 -0.11805721120549238
0006e0 31 e7 0a 44 f3 41 b8 3f f0 f9 01 be 6e da b8 3f
       0.09475632106014299 0.09708301676617004
0006f0 38 b1 53 b8 dc 42 af 3f 16 ae 2b 61 25 85 c2 bf
       0.06105699300846584 -0.14468829388293675
000700 e5 97 64 bb 0c e5 a9 bf a9 39 ef d1 bd 8f b3 3f
       -0.05057563579093464 0.07641207099297866
000710 e1 c6 a7 e4 0d c7 bf bf 80 bb 9a 76 4f ce 94 bf
       -0.12413107712179851 -0.02031826173213913
000720 60 a2 6c dd c1 1c af bf a9 92 2d a9 d8 07 bb bf
       -0.0607662756722831 -0.10558847551653607
000730 2f 23 c0 7a f6 37 a5 bf f3 a6 0d c9 79 39 b3 3f
       -0.041442587360569376 0.07509575994995625
000740 fe 5c ac af a5 d7 89 3f f9 60 00 46 65 f5 aa bf
       0.012618345664618943 -0.05265346984396219
000750 32 8e ec b8 1e 81 ae 3f 5e 6b 50 48 36 96 b4 3f
       0.05957885749219506 0.08041705384714024
000760 4f 3a 7c 53 bc 62 c2 bf 61 0d f5 62 3d b4 80 bf
       -0.1436381728785414 -0.008156280119357264
000770 c6 46 ea 18 d2 97 b9 3f f0 aa 35 e5 31 df c3 bf
       0.09997284992484898 -0.1552488679111188
000780 c8 34 5e 08 02 d9 64 bf e6 1b af dc 44 4b b6 bf
       -0.002544883699505538 -0.08708601367753452
000790 b2 b7 9c 82 39 f2 af bf f8 16 79 83 25 4b a7 3f
       -0.06239490241419733 0.045495197581244484
0007a0 1d f9 fe 1c f7 0f bf bf 3c 06 df eb e5 fd c2 bf
       -0.12133736093435173 -0.14837335602901358
0007b0 3d 1f f6 d8 ed e9 c0 bf 24 6a fb 55 6f 0c b9 bf
       -0.13213894933527995 -0.09784599160358504
0007c0 94 91 75 d8 3a a0 b9 3f c3 0b 4a e0 6d 0c 95 bf
       0.10010116371774408 -0.020555226149109772
0007d0 f1 72 b6 49 e7 2c b0 bf 8b 2f 85 32 d6 4d 7f 3f
       -0.06318517255426649 0.007642590244653645
0007e0 81 7a c7 b1 26 5d 90 bf d8 76 85 e1 bc 8e bf bf
       -0.01598034343794064 -0.12327175622837261
0007f0 fc 98 ca ca ae 38 b8 bf 0a 7d e1 5b 0b f0 66 3f
       -0.09461491061174238 0.002800008950586301

network.0.layers.0.residual_resample.weight f8 [20, 1, 1]
000000 f3 89 40 41 fb 2e c5 bf 96 e9 83 3c be 46 dc 3f
       -0.16549626051080643 0.44181781682677845
000010 7c 06 5b d0 11 14 c3 bf 9c 24 58 a2 4e e3 a7 bf
       -0.14904997514354423 -0.046656091039104924
000020 19 c0 09 77 27 07 e4 3f d0 53 8d 40 3d 89 db bf
       0.625873310562386 -0.43025142005836603
000030 70 72 f5 a3 98 a0 e2 3f 1f d7 9f 29 e4 92 e5 3f
       0.5821040346450683 0.6741810620285128
000040 72 f5 31 16 25 9b de 3f c5 c4 f8 73 5e af c4 3f
       0.47821929137702235 0.16160183584864832
000050 b1 a6 3b 7a 38 ca e9 3f 1c 8e ed 7c 1c 6f a7 bf
       0.8059351336825867 -0.04576958680152307
000060 55 29 0a 25 13 4a bd 3f ac cd dc 84 57 e0 ea bf
       0.11441154150285134 -0.8398854823084796
000070 77 9a 51 7f 6f 1f cf 3f 29 c7 90 29 6e 1e ee bf
       0.2431468364404343 -0.9412146388842518
000080 35 51 34 f4 05 53 e0 3f 00 61 48 25 fa cf e0 bf
       0.5101346749893653 -0.5253878334215472
000090 fe 38 fe c2 92 94 e8 3f 8a 8b 4d 67 6b b2 c8 bf
       0.7681363876779697 -0.1929449324043982

network.0.layers.0.residual_resample.bias f8 [20]
000000 82 6e 5a 9d ae 08 d8 bf 20 5f 06 5e 7c 63 ea bf
       -0.3755299126293964 -0.8246442638801206
000010 f6 53 71 ad 6b 6e ec 3f d9 68 28 ba 00 cd e9 3f
       0.8884790790131081 0.806274760808516
000020 b7 b4 15 e4 a3 5a b2 3f 84 32 27 91 89 25 c9 bf
       0.07169555967785156 -0.19645804965547964
000030 04 72 73 ad 66 eb b9 bf 46 63 a9 d3 28 2c ea 3f
       -0.1012481854881529 0.817890561486913
000040 e4 90 a4 fd 75 d0 e2 bf fc 50 51 fc b2 8f ee 3f
       -0.5879468873941076 0.955041401679892
000050 fc f7 5d dd a0 2f f0 3f 0e 43 ef 47 76 cf ee 3f
       1.0116280219222054 0.9628249554608332
000060 00 13 23 61 5c 89 c3 3f 72 d7 8a 1a b0 f8 ec 3f
       0.15262942069070817 0.9053574102788231
000070 ca 08 08 ed 86 8a eb bf 10 df 9f 8d 12 2c ef 3f
       -0.860660040809557 0.9741299406150308
000080 63 a9 c8 77 74 a9 e5 bf 4e 25 e4 fc 38 9a e3 3f
       -0.6769354190376301 0.6125760020524156
000090 e1 1f ff cb 3e fe d0 bf 74 d7 96 c4 e8 a7 db bf
       -0.26551790162602457 -0.4321233672920848

network.0.layers.1.causal_conv.0.bias f8 [20]
000000 d6 ca 75 14 a9 5d b3 3f e7 3a 34 b2 16 fe ae 3f
       0.07564789533152391 0.06053229260770881
000010 01 cb 71 dc 1f b4 a1 bf 68 a3 ee 40 f5 1b b2 bf
       -0.03457736555073688 -0.07073910556085894
000020 0e d2 b4 47 69 41 a3 3f 65 15 51 c8 9a 3c b9 3f
       0.03760842323609746 0.09858100309891922
000030 c0 b5 93 96 88 d8 bd bf a1 b3 f9 93 55 cc 93 3f
       -0.11658528972812743 0.01933416095419072
000040 e0 19 95 0c 10 54 b1 3f df df 08 ba f0 84 b7 3f
       0.06768894488514077 0.09187225858556712
000050 56 7b 97 1e b8 21 bc bf 70 37 34 e2 ad 42 ae 3f
       -0.10988951441639236 0.05910247217444364
000060 9e 0c c5 0b 1b 38 9a 3f ce a2 39 c9 47 b2 b8 3f
       0.025604651063315324 0.09647034323428302
000070 4c c4 2a 9f 64 08 91 3f de 80 35 68 3d 74 be bf
       0.01663357945898651 -0.11896117967762929
000080 d8 34 b0 e7 62 92 b4 bf d6 56 d8 75 38 d5 ae 3f
       -0.08035867840245048 0.060220493684182294
000090 c6 be 60 d9 b8 af b3 bf 70 8f 2e b8 f9 13 be 3f
       -0.0769000559528151 0.11749230143192135

network.0.layers.1.causal_conv.0.parametrizations.weight.original0 f8 [20, 1, 1]
000000 db fa 95 42 a5 12 e1 3f 00 4f 1f 97 9e 26 df 3f
       0.5335260677819308 0.4867321468166068
000010 61 34 e0 62 59 ec e0 3f b5 69 70 22 b3 56 e1 3f
       0.5288512164276079 0.5418334648741651
000020 22 33 7f f5 65 02 e0 3f 28 be f9 2d d9 c1 e0 3f
       0.50029275845154 0.5236631296119798
000030 8c be 1e 6e 02 a1 e2 3f 26 11 2e 7a 8d 1a e3 3f
       0.5821544791014772 0.5969912897421963
000040 ae 0d ac 82 c0 87 e1 3f 2a a7 0e f1 b2 72 e0 3f
       0.5478212883175979 0.5140013416432556
000050 44 62 16 61 93 e7 e1 3f 0b 42 f6 60 32 10 e4 3f
       0.5595185180891993 0.6269771474636071
000060 06 e4 45 97 16 46 e2 3f 76 64 87 16 ff 05 e3 3f
       0.5710556940604199 0.5944819870011446
000070 8c 56 9e 88 e1 ed e1 3f f7 9c 9d 9d df 3d de 3f
       0.5602882068948971 0.47252645866542714
000080 fd 19 bb 00 5f e0 e0 3f 00 2e 52 d5 38 f9 e2 3f
       0.527389050891372 0.5929226080347121
000090 32 c8 5d a9 11 1e e2 3f 9f cb 70 86 fd 0c e0 3f
       0.5661705310760736 0.5015857339661699

network.0.layers.1.causal_conv.0.parametrizations.weight.original1 f8 [20, 20, 3]
000000 6b bc 2e 8b 4d ef b5 3f 28 8d c2 df 17 7e bf bf
       0.08568272254955082 -0.12301778042688183
000010 d3 dd 4d 86 ee 6c a2 bf 3d 94 88 39 42 6b b7 bf
       -0.03598733319716598 -0.09148038773180729
000020 4f 5e 20 89 88 fc a0 3f 70 9f 2e 04 21 25 b3 bf
       0.03317667650133826 -0.07478529312231585
000030 4e b4 9c 1e cc 57 c2 bf 68 d7 3d 17 dc 3e b0 3f
       -0.14330436224682547 0.06345916335507484
000040 ba de e0 08 89 94 b3 bf 21 11 b5 9f 05 b1 8f bf
       -0.07648521868474747 -0.015474361359004764
000050 6e 8c ae 5b 55 18 a0 bf b6 dd 76 5a a4 89 b8 bf
       -0.03143564933932273 -0.09585025032617164
000060 f1 ac 7c 2a eb 8d a6 bf 18 e8 c8 30 c9 39 b3 3f
       -0.04405150312080675 0.07510049286875675
000070 1d e2 e4 98 87 90 a8 3f 7b 4d c8 5c 2f 96 bb 3f
       0.04797767392523531 0.10776039138027287
000080 90 92 7e df ff 3a ae bf ce 5a 0b f1 93 0a b2 bf
       -0.05904388049319664 -0.07047390589591915
000090 2f 0a a1 b7 0c 89 9f bf 47 ed 0a 1d bb 91 b6 bf
       -0.030796240527943105 -0.08816117724466209
0000a0 55 38 94 a7 a3 c3 bf bf f8 1d 16 88 f2 3a a1 3f
       -0.12407896844180873 0.03365285788737177
0000b0 43 20 65 78 22 6d a2 3f fe 26 58 39 45 a0 a3 3f
       0.03598888129869284 0.038332141161005126
0000c0 02 b8 db 59 4f 26 82 bf 2a 04 c5 24 46 7f af bf
       -0.008862132959134076 -0.0615178985485801
0000d0 05 a5 91 db c0 c3 72 bf 9b 8d 84 41 fa ec b8 3f
       -0.004581216192584896 0.09736599063449207
0000e0 e8 a3 37 dc a9 9f 8a 3f 0e 49 91 e3 aa 25 c0 bf
       0.012999846489906333 -0.1261495219392334
0000f0 c2 d0 9a b0 05 7f ad 3f 0d c8 87 10 f2 76 91 bf
       0.05760972767657925 -0.017055303820548363
000100 c8 f4 7c 98 1e d4 59 3f 33 cf 91 a0 e7 b4 b7 3f
       0.0015764521394452825 0.09260413808970895
000110 a9 8b af 32 f8 4b bf bf 7e cd 46 57 cf ad 9a bf
       -0.12225295293278172 -0.026053657247485422
000120 4c 0e 97 03 b4 3b be bf cd a5 f5 3e 63 95 6d 3f
       -0.1180984982266235 0.003611272659033138
000130 82 9c 19 4e a9 da b3 bf 93 0e 8e 63 48 cc 9d 3f
       -0.07755525738467564 0.029099589420651894
000140 b9 bb 18 73 c1 f0 aa 3f 0a 32 69 67 75 cb b5 bf
       0.052618069934730234 -0.08513578200035724
000150 0c f4 6c 1c 5f af bc 3f 43 45 de 04 b9 fe a2 bf
       0.11205095714554164 -0.037099630207317456
000160 51 2a 71 c9 36 53 ba 3f c0 cd b6 60 35 ce b7 3f
       0.10283224504488798 0.09299024211104889
000170 89 e1 ea 04 5e 03 33 3f 01 51 99 3f ef f9 bb 3f
       0.00029011769667477337 0.10928244879443484
000180 33 5e 90 b4 e9 6d 98 3f 38 f3 3a 49 92 82 b4 bf
       0.02385678448271573 -0.08011736190651397
000190 49 9a 19 0a ba 62 9e bf 93 5d 8c 78 a7 2d b2 3f
       -0.02967348753591129 0.07100912755082893
0001a0 33 52 e2 16 03 76 ac bf 20 23 9d 96 8b 49 7c bf
       -0.05558786062571066 -0.006906075732168643
0001b0 a5 08 64 36 f4 09 b8 3f ef 86 08 67 23 6b 97 3f
       0.09390188529872263 0.022869637645391568
0001c0 5e 8b 55 2c 4f 4c b8 3f 0d 8f e2 7d fe aa ad bf
       0.09491438705803776 -0.057945206515141214
0001d0 13 ba 83 51 73 c3 8e bf a1 73 3c 64 5d 80 c2 3f
       -0.01502122967255296 0.1445423831400179
0001e0 8f 3d 5a 18 4b ac b4 bf bb f6 bd df a8 1e bb bf
       -0.08075398773711683 -0.10593657934620186
0001f0 30 6b 0f 96 a0 d4 c0 bf 63 5c e7 6e 9f 58 b7 bf
       -0.13148886992606768 -0.09119602639781159
000200 17 c6 99 16 cb 32 99 3f ae 54 66 b3 8d 4f 56 3f
       0.024607823614536253 0.0013617404743844585
000210 9d 77 e5 13 40 7a b5 3f 04 6f 89 c9 27 d8 9e bf
       0.08389664159537209 -0.0301214424856502
000220 45 64 86 a8 38 20 ba 3f 52 be 50 cd 4d 60 8e bf
       0.10205415834788407 -0.014832122638920673
000230 6f 91 47 55 d9 83 b3 bf e8 bb 93 ac d6 ea be bf
       -0.07623060543079928 -0.12077085221584094
000240 75 ae fe 16 ed a5 b0 bf cf b2 ac 7a c5 77 b6 bf
       -0.06503183185002988 -0.08776506657586512
000250 0c e1 aa de b9 8f a8 bf 17 43 36 94 ee cb b3 3f
       -0.04797154276951873 0.07733050459343037
000260 36 4a e2 f2 56 dd b2 bf 2c d9 07 65 4a 4f ab bf
       -0.0736898749330884 -0.05333931430134195
000270 6d f9 78 9d 79 0f aa 3f 9b 95 fe 40 51 bd 93 3f
       0.05089931533119594 0.019276876060435915
000280 e8 73 1a 1b f8 bb ad bf 5f 73 ac 5c 82 ae 95 3f
       -0.05807471590853891 0.021173512369489497
000290 53 c1 e1 6d f7 1c 9d bf fb 2c 41 07 5d 09 aa 3f
       -0.028430811006218203 0.05085268701130904
0002a0 7d ad bd 37 ca ae b2 3f 84 72 a9 61 3a 58 9f bf
       0.07297958241331588 -0.030610000811395213
0002b0 ae eb c9 f6 7e 68 b7 3f 53 d0 ea 16 bf cc 8e 3f
       0.09143823170772578 0.015038960348967267
0002c0 37 d4 2c ef 54 18 b8 3f 59 a3 dd b3 05 fa be bf
       0.09412127341495667 -0.12100253716711275
0002d0 53 ac 68 0f 8c c0 92 bf 94 d7 8c bf a4 8c 83 3f
       -0.01831263393448197 0.009545600028655156
0002e0 d8 be fc ff ab 34 ad 3f aa d0 16 4a 02 8f 66 3f
       0.0570424795135957 0.0027537388529826528
0002f0 5c 0c 3e 65 52 e9 60 bf 37 d7 2a c6 cd 4c a8 3f
       -0.0020643815313988022 0.047460966530179886
000300 54 8a d0 cb 37 72 6f 3f 23 5c db b6 5a 58 aa bf
       0.0038386430519648327 -0.0514553402151068
000310 f1 03 f6 f6 06 ad b5 bf cc e7 0d f0 f0 f1 bc bf
       -0.08467143563576919 -0.11306672917081001
000320 a3 85 cb 78 40 a4 b4 3f bb 2a df 67 8d 64 b8 3f
       0.08063128422829506 0.09528430734568875
000330 84 03 e2 00 e7 88 8c 3f a1 e8 07 55 25 17 c0 bf
       0.013932995523875176 -0.12570635463618365
000340 4e 25 a6 5c fa cc a5 bf ab 34 56 7e dc c4 89 3f
       -0.04257948285073586 0.012582514386645668
000350 60 f9 8e db ae 5f b4 bf 94 f6 fb 91 fe 71 bc bf
       -0.07958500728907358 -0.11111441673343797
000360 9c c6 44 d9 a3 6a a5 bf c0 8f 37 52 d8 40 81 bf
       -0.04182922389226215 -0.008424463280739647
000370 0e cd 88 a6 2d 78 b9 bf 7b bf 98 49 0a f2 a0 bf
       -0.09949002567082152 -0.033096620067566605
000380 2e 5c 4b fe 79 14 b2 bf 77 d2 47 01 69 47 b8 bf
       -0.0706249471507909 -0.0948396328092914
000390 26 21 96 e3 5a 0b 76 3f a2 7c ff 15 1c 55 94 3f
       0.00538192275542596 0.019855917780543415
0003a0 75 1b f0 8c 58 85 95 bf 49 b5 2e c9 20 02 c2 3f
       -0.02101648674217978 0.140689943536396
0003b0 79 4d 0c 36 60 b8 91 bf 6f e5 88 72 a4 b1 b0 3f
       -0.017304900454360592 0.06521060749300543
0003c0 f8 b3 38 59 df 43 af bf b4 15 a4 a1 8b 5a b2 3f
       -0.06106470073823539 0.07169411369621664
0003d0 f5 3d 25 b3 e2 cd ad 3f 02 0b 9b 73 f8 05 47 3f
       0.058211407059044186 0.0007026160376074344
0003e0 57 96 99 70 fc 08 b9 bf c1 94 6f 96 d3 69 ac bf
       -0.09779336689970229 -0.055494892228844524
0003f0 d4 2d f0 2a 4c 79 ab bf e7 22 d1 72 55 d5 95 bf
       -0.053659801713447 -0.021321616299505044
000400 9c af 17 15 ad ef c0 bf 18 6b e4 f0 78 a5 bd bf
       -0.13231433420093885 -0.11580615883978529
000410 8e fa de f8 0c 06 c1 bf ae 60 37 10 3b 53 b1 bf
       -0.1329971518698198 -0.06767624994188523
000420 ef f0 93 c4 cb 22 b2 bf e5 3d dd bd 4e 68 b7 3f
       -0.07084344434037225 0.09143535743100235
000430 f0 29 32 a9 97 63 af bf e9 eb 99 0d bf d0 83 bf
       -0.061306704906275544 -0.00967549572236766
000440 97 41 c6 40 bd 21 a4 3f 29 72 cd 12 c2 1d 89 3f
       0.03931991019919961 0.012263790320212813
000450 53 b3 31 97 fc 2c 99 3f 30 32 ae ae b4 75 b8 bf
       0.02458567307296573 -0.09554604782733445
000460 2d 56 ac 57 73 a8 b3 3f a6 4d eb 28 1c 54 a2 3f
       0.07678910150965441 0.03579795836926829
000470 93 f6 50 0d 1b d4 bd bf 5f 0a be ff da 88 b1 bf
       -0.11651772570709289 -0.068494498669716
000480 32 f0 ad e4 fc 72 5a bf f4 2f e1 e4 a7 cc 9b bf
       -0.0016143293057373606 -0.02714788755865523
000490 8d 15 59 8e 2c 02 c2 bf 1c f7 1c 6c a8 20 a7 3f
       -0.14069134665093622 0.04517103500118777
0004a0 93 c8 23 f9 23 5a aa 3f 2e 8e ca 2c 5e 3a a8 3f
       0.05146896759278365 0.04732031151550263
0004b0 fb f0 3b 43 20 53 76 3f 16 9a be b8 a7 c6 b1 3f
       0.00545036890593686 0.06943748722424234
0004c0 8a ef 05 68 56 06 b1 bf 55 c7 32 7d 41 ef 8c bf
       -0.06650295295361111 -0.014128219254732658
0004d0 90 c0 bd cb 3b 85 b8 3f 5b 74 53 8f 3b 44 ad 3f
       0.09578298305655353 0.057161198850487614
0004e0 7c 3f b7 7f d7 da 8a bf 08 e1 d4 98 b8 19 a8 3f
       -0.013112720093800816 0.04707123628253568
0004f0 92 c3 57 2f 59 d4 bc bf e3 e0 ea 5b 33 e8 9f 3f
       -0.1126151791174961 0.03115921257514821
000500 28 31 b8 9b 14 7d 6b 3f 8e e5 3e 8c 02 c6 ba bf
       0.0033555414681868574 -0.10458389209715888
000510 96 4c 49 af db fc ba bf 3e f7 2c 6b 46 88 b6 3f
       -0.10542080907298365 0.0880168925914093
000520 0d 91 64 12 92 6b 84 3f 93 45 71 77 c4 01 a8 bf
       0.009970799623780136 -0.046888484554652575
000530 91 df 5b 70 0c 2b 8c bf 13 3b f1 d9 fb 95 85 3f
       -0.013753983668251897 0.010539977634974862
000540 b1 08 fc 16 b3 82 b6 bf 73 dd 96 f1 19 3c b0 3f
       -0.0879318171610375 0.06341707370926546
000550 0f 97 29 b7 ce 3c b7 3f a0 98 08 c3 ea 37 ba bf
       0.09077159854640747 -0.10241572629510864
000560 13 1d 43 e5 96 8b ba 3f 9a b1 a9 40 60 1e ab bf
       0.10369246575566064 -0.0529661253866351
000570 7c f8 db e2 a5 64 b0 bf 22 f7 88 d8 af db af 3f
       -0.06403576649242554 0.06222295301675575
000580 c7 d3 ef 6d 51 6d ae bf 2c d2 e2 d3 db 1a 9d bf
       -0.05942778079035054 -0.028422770316597276
000590 f5 6d 35 cb 73 43 b0 bf d4 c8 0a f8 c0 ec b6 3f
       -0.0635292407145512 0.08955007606235493
0005a0 59 2a 03 07 94 61 bb 3f 38 22 09 39 e4 88 bc bf
       0.1069576756591827 -0.1114637984511625
0005b0 cd 83 62 0a 77 cb a4 bf cc aa 59 1d 34 ad ae 3f
       -0.04061481477516047 0.059915188391490654
0005c0 51 35 2b e8 e2 41 ba 3f 4a d2 69 1a cc 24 9c 3f
       0.10256784599478876 0.02748412047590624
0005d0 64 a7 64 11 00 58 b0 3f 5f db 80 58 f5 14 b8 3f
       0.0638427774871651 0.0940697995255113
0005e0 07 9c 4f bc 00 94 a0 bf 39 69 1f e9 d2 5d 9b bf
       -0.032379172312907704 -0.026725097159080866
0005f0 66 0a 6e 10 a3 41 61 bf 7b 46 75 55 77 22 b9 bf
       -0.002106493458485392 -0.09818216167811926
000600 23 bd a8 27 c6 06 b0 bf b5 c5 60 38 a5 97 8e bf
       -0.06260336368790269 -0.014937678130169421
000610 33 26 df d7 5f 1a be bf 13 ec 8e e3 dd ea b2 bf
       -0.11758994121842008 -0.07389628224966342
000620 f6 1b 71 2b ad bd 99 bf 4c 34 e7 8e 59 ba 9f bf
       -0.02513762071273714 -0.03098430571281012
000630 3b 52 55 71 ba 54 b6 3f 15 e7 ee e8 4e 1b 97 3f
       0.08723035113264015 0.022565110175242504
000640 10 88 9a 58 fd b5 b2 3f 44 fc d2 10 77 5e b5 3f
       0.07308944142508289 0.08347267304178368
000650 23 ef d8 e4 ad 5e a6 bf ff 5f 27 47 fe 29 a5 bf
       -0.04369109552905417 -0.041336008249061244
000660 21 3c b0 00 4b 9f b4 bf 5a 63 d8 db 22 b0 c1 bf
       -0.08055561796958034 -0.1381877492392743
000670 20 df dd fa b5 07 b4 bf f5 87 92 99 48 a0 b9 3f
       -0.07824265837359379 0.10010198354078155
000680 0d 34 d2 e7 2e 14 b5 3f b7 61 8d ac a6 aa a3 3f
       0.08233922156996716 0.038411339343557165
000690 0a 4f 25 e7 5a 62 a7 bf 81 31 38 0f 90 75 c1 bf
       -0.04567226478198279 -0.13640022986545478
0006a0 a4 4b a9 f0 f3 93 be bf 75 a4 d5 f3 00 bd bb 3f
       -0.11944508195419573 0.10835271790496555
0006b0 75 3c 8d 4b 0c f7 a6 bf 2a 8a 28 ef 9e 8f bf 3f
       -0.04485357687246331 0.12328523005320649
0006c0 c5 8e dd be 75 61 9b 3f 5f df c4 e0 02 68 ab 3f
       0.026738967680457266 0.05352791780245413
0006d0 a3 ac 35 3b 24 48 b5 bf 86 95 93 6c 44 04 a5 bf
       -0.08313204236553644 -0.04104818177601559
0006e0 48 56 17 f9 3f 61 bd 3f 89 80 7a a4 42 d1 b4 bf
       0.11476516562773853 -0.08131805911625824
0006f0 e0 37 f1 a3 e0 42 c0 bf 7b 70 d2 5c ef 2c a8 bf
       -0.12704093937867267 -0.047217826920332016
000700 8a 81 6f 9d 07 f8 82 bf 63 59 25 14 ad 82 a6 3f
       -0.009262141696979826 0.04396572943612644
000710 74 58 7d 96 f4 48 88 3f 01 62 bf c8 9c 23 a4 3f
       0.011857901423052854 0.03933420134098143
000720 25 a1 d7 2f f2 94 b1 3f e5 b6 3a b5 eb a3 b8 3f
       0.06867898624443976 0.09625123190445668
000730 16 56 93 f2 ac 67 a0 bf 8e 8c db 22 19 39 a3 bf
       -0.032040981875678096 -0.03754499960430123
000740 2e d1 c2 ea e2 4e bc bf 54 e2 ec 03 c8 8c a5 bf
       -0.11057871085614998 -0.04208970115582092
000750 6e a3 40 3d bb 9b 96 bf c2 3c bd 7d 92 79 ba bf
       -0.02207844315867951 -0.10341754503064052
000760 95 f8 27 a5 28 1d a8 3f b3 95 70 c9 9a 9e ba bf
       0.047097463761006576 -0.10398261468852503
000770 2b 41 60 ff b1 76 a0 bf 4e 61 bd 79 42 df 96 3f
       -0.032155573295428695 0.022336043053060188
000780 9f ad 9f 27 da 81 ac 3f c5 7a 3f 1b a2 b0 82 bf
       0.05567819341362256 -0.009125963646451915
000790 c5 21 90 ad c8 e4 bd 3f 51 e3 dd 23 04 ef b9 3f
       0.11677221524599364 0.10130334735539505
0007a0 fa b0 d1 38 ba d7 a7 bf be 6f 6e ad 76 96 9e 3f
       -0.046567744670797453 0.029870848021900313
0007b0 80 34 ae 8f dd 37 c1 bf 04 d6 da d4 dc 59 a3 3f
       -0.134517378956307 0.03779497240376986
0007c0 4a 03 7b 4e 00 90 a4 bf af 45 5f 31 84 bc a6 3f
       -0.04016114194883487 0.04440701582610573
0007d0 40 e2 44 a5 83 c7 b0 bf b6 bb 72 8e 3a 76 9c 3f
       -0.06554434571160872 0.027794756836268163
0007e0 b7 58 bc 9f 16 b1 b2 3f c7 6c 01 e5 ea c5 bf bf
       0.07301465415762008 -0.12411373225170329
0007f0 c3 90 5d fd 64 cb 92 3f 00 20 d6 b2 51 78 ac bf
       0.018354013408853797 -0.055605462151163465

network.0.layers.1.causal_conv.3.bias f8 [20]
000000 f2 55 d2 ca ea f4 96 3f 2a 93 ee bb 6e a7 a9 bf
       0.02241865981030417 -0.050105534020337864
000010 77 e9 2a 50 54 c0 ac 3f 17 01 c9 af 1d 05 b6 3f
       0.05615485647782042 0.08601556340818593
000020 67 a2 ac fb f9 81 c1 bf 04 93 4f d1 f7 10 c4 bf
       -0.13677906788622637 -0.15676782341247286
000030 0a 21 09 56 83 cb a4 3f af d3 7c 14 42 a8 ba bf
       0.04061518120994563 -0.10412991523919744
000040 d2 13 83 43 11 05 c2 bf f5 a9 99 05 58 e8 b4 bf
       -0.14077964588628206 -0.08167028557514995
000050 6b d3 4b bb 2b 6c be bf 6f e9 e3 5b 7e 20 bd bf
       -0.11883805582676892 -0.11377706283011489
000060 f2 76 a8 c4 78 f4 a0 3f 1d b9 37 83 68 fe b4 bf
       0.033115171438323446 -0.08200696185642582
000070 6d 38 ec 80 f0 8b b5 bf ef 91 27 a4 bc e6 8d 3f
       -0.0841665568115972 0.014600251922225886
000080 34 bc ae ce b3 95 bf bf 5c ac 13 3c 81 78 82 bf
       -0.1233780269237606 -0.009018907209300923
000090 15 e9 2a a9 4e 87 a1 bf fe 97 74 c2 c0 a6 a2 3f
       -0.034235437536567805 0.03642847417567906

network.0.layers.1.causal_conv.3.parametrizations.weight.original0 f8 [20, 1, 1]
000000 92 87 d6 9a ec bc db 3f 99 dc 40 1c 10 cc e0 3f
       0.4334060203637985 0.5249100257705265
000010 96 b2 d6 38 34 79 e2 3f 9f 81 1c 74 2b e3 e1 3f
       0.5772954092149856 0.5589806812095509
000020 88 5b 70 1c fb 5f de 3f 23 05 2f 37 84 41 e1 3f
       0.47460820939289095 0.539247615604982
000030 13 c4 14 d8 ec b7 e1 3f dc 2c 5d 55 48 d6 e1 3f
       0.5537018032392801 0.5574075381531673
000040 1b d4 98 46 5a 3b e0 3f c9 25 56 8d 8e d4 e2 3f
       0.5072451952788727 0.5884468803862372
000050 7c f5 a5 5f e0 2c e2 3f b0 aa ff b8 8c 57 e2 3f
       0.5679780834322368 0.5731872189765763
000060 9a 44 5a 37 2e db e0 3f 63 4f d8 d0 bf 7c df 3f
       0.5267554360490465 0.4919890918256355
000070 6a be 59 28 64 eb e1 3f 6f 77 de 16 f7 bc e1 3f
       0.5599842823120984 0.5543170401249266
000080 8c 5e fd 36 86 68 e2 3f 88 c2 5d 11 45 ee e2 3f
       0.5752593111055417 0.5915856684860765
000090 cd ee 3c b6 2c ca e0 3f d8 c1 fa 64 26 67 e0 3f
       0.5246795234047227 0.5125915500885254
