encoder_bpe.pt (torch, 352974 bytes, 24 tensors)

network.0.layers.0.causal_conv.0.bias f8 [20]
0	0xbfd755f0978d9ef5	-0.36462034988515707
1	0x3fbc14272b335f31	0.10968251042083633
2	0x3fdc3a4e3893be39	0.4410586884032202
3	0xbfd32656abe25517	-0.2992150000148554
4	0x3fd38cccbadb8d43	0.3054687332898604
5	0x3fb3f2994371f35b	0.07792051216706623
6	0xbfd5ff3e59cf558e	-0.34370383043764086
7	0xbfdebd6b1c07b959	-0.48031118142434576
8	0xbfd4b19c9a3a784c	-0.3233405595909786
9	0xbfde9a96494cf3d5	-0.47818524511586463
10	0x3fe0b07254e61b51	0.5215388925724743
11	0xbfe229d4bbac580c	-0.5676063218586491
12	0x3fe0a45a3321afc1	0.5200625418342427
13	0xbfda7a423aa9d236	-0.4137120793232357
14	0xbfb5d5b4a6ef0eba	-0.08529213977368047
15	0xbfd79e991ea880f7	-0.3690550612827929
16	0xbfe01b331b1b055d	-0.5033202676205907
17	0xbfaec168df78f535	-0.060069348601681595
18	0xbfe28c11156d2aed	-0.579597989891537
19	0xbfd8ad60b653baef	-0.38558214002016106

network.0.layers.0.causal_conv.0.parametrizations.weight.original0 f8 [20, 1, 1]
0	0x3fe7a12690601494	0.73842170904449
1	0x3fd755712897960c	0.36458996738505856
2	0x3fe45dee5d51018b	0.6364662001215476
3	0x3fdf73befc021859	0.49143957719969006
4	0x3fe31a72841aab19	0.5969784336242326
5	0x3fe668bc27f8430a	0.7002850323352459
6	0x3fda9dc8bb6a1c1b	0.4158803777904169
7	0x3fe2b65f81af494d	0.5847623379616295
8	0x3fdaa3be862dd2c1	0.41624415496270833
9	0x3fe63e7b530d9e1c	0.6951271650440876
10	0x3fd4df26d1242b62	0.3261200945277577
11	0x3fdee0e0e1346eba	0.48247549050004646
12	0x3fdc40b0076cfd01	0.441448218585677
13	0x3fdb98352a8368c1	0.4311650195283044
14	0x3fd111816a8c7c63	0.2666934528842317
15	0x3fc04f4215fa6599	0.12741876671934163
16	0x3fe683e2e9031f3c	0.7035994101542893
17	0x3fe3888b9dcfe78f	0.6104181368129832
18	0x3fe1bccb6339b380	0.5542962015148163
19	0x3fe3e5da8c11152f	0.6218083129576025

network.0.layers.0.causal_conv.0.parametrizations.weight.original1 f8 [20, 1, 3]
0	0xbfd83ba5ef9cd75a	-0.3786406364409821
1	0x3fdd5533e42a05aa	0.4583253601232068
2	0xbfe265d36e7556ce	-0.5749299199476015
3	0x3f956a67c971497d	0.020913716955257556
4	0x3fd513e30142f146	0.32933879016106393
5	0x3fc2c0708a6cfb20	0.14649779089992254
6	0xbfdf527838756245	-0.4894085456230964
7	0x3fc7336975afe899	0.1812564682621243
8	0xbfdd2eae3488287b	-0.45597415094437793
9	0xbfe2a4ad68e1ef5e	-0.5826022194373583
10	0xbf8da4f42b8b8462	-0.01447478063477287
11	0x3fc053f17deea8bf	0.12756174706493614
12	0xbfc65289601f489a	-0.17439381783930658
13	0x3fe2f7dc86fd9cb7	0.5927565228020261
14	0xbfd378f0c13fe010	-0.30425661918661806
15	0xbfbdcd7d6e4cc8d3	-0.1164167780196153
16	0xbfe27c81c6f395e4	-0.5776986013194656
17	0x3fe0f67691bd0640	0.5300858351185482
18	0x3fb25b9592be2d0c	0.07170996506299704
19	0x3fd7ae5c4eb8ae7f	0.370017125011806
20	0xbfcc9e45c061e2a1	-0.22358009236974843
21	0xbfcbe64fc866a326	-0.21796605382157813
22	0x3fe1eca999e95669	0.5601394659121982
23	0x3fc0b7f05c10ea04	0.13061336989797223
24	0xbfd0a8be575cb821	-0.26029928714240397
25	0xbfcd48867d165d20	-0.22877579791814018
26	0xbfc8de95e1128cf1	-0.19429276933542597
27	0x3fe0c95bd563f37a	0.5245799224645531
28	0x3fd95c75fa833654	0.3962683626567458
29	0xbfd6bee7f360aa4f	-0.3554019810423243
30	0x3fc32e07d88a95da	0.1498422438937002
31	0xbfd1f94bb783b18b	-0.28084080621081203
32	0x3fbb492db18e2c31	0.10658536515090657
33	0x3fe04c6836aa1ab4	0.5093270366349629
34	0x3f8905fab0f660de	0.012218435788597434
35	0x3fb9dba74d9b0cba	0.10100789684934144
36	0xbfc381c7b745c26d	-0.15239807556965293
37	0xbf77a4a0dc860094	-0.005772236218376876
38	0x3fdd12a26db9326f	0.45426235881021787
39	0x3fd574854e0713b3	0.3352368604649271
40	0x3fca55a282a50851	0.20573836688169192
41	0xbfd650b175902aae	-0.34867512207771767
42	0xbfb4a3cd95dca647	-0.08062443646181193
43	0xbfbd56caf4c3fbab	-0.11460560298654225
44	0xbfb921df2a380388	-0.0981730917046787
45	0xbf9165e7859293a2	-0.016990296867010486
46	0x3fabb55c06d677c1	0.05411803801983651
47	0x3fc493c7544e4c5c	0.16075984589096748
48	0x3fd4d2c6b83b1f15	0.3253647612695983
49	0xbfdb7b6c9b31bd72	-0.4294082179612452
50	0x3fdf5946bde3dbfe	0.4898239950557012
51	0xbfc0507855dff5b4	-0.12745575135333598
52	0x3fdb03e0e4897a10	0.42211172407215347
53	0xbfdeef1be291b6ae	-0.48334405065439057
54	0xbfd63dc3f6679d0a	-0.34751986563647164
55	0x3fd4a83bb3c6fbc6	0.32276814037680557
56	0x3fd941f116f3acac	0.3946497654093928
57	0x3fac2ff37ad87e12	0.055053337808427597
58	0x3fb0d7c6df0c39a4	0.06579249330045528
59	0xbfdee95b35f192f9	-0.4829929377358862

network.0.layers.0.causal_conv.3.bias f8 [20]
0	0x3f8b95a9d473a53b	0.013469054027569363
1	0xbfa28482089d20d4	-0.036167205382811624
2	0xbfc41e5c9dac57c2	-0.1571765680207005
3	0x3faf3443548743e3	0.06094561011162349
4	0xbfc222362df72fe2	-0.14166905636227428
5	0x3fbb1b9941d9a6fe	0.1058898721472836
6	0xbfc4277538b8a938	-0.15745415944668095
7	0xbf92ebe44df56cf6	-0.01847798085996729
8	0xbfb030c179d084a8	-0.06324395393359572
9	0xbfbbb5fac686a6f4	-0.10824553820443922
10	0xbf84c3181af2cf35	-0.010137737581636589
11	0xbfb20e61956b411a	-0.07053193948673134
12	0xbfc41ef220e563e0	-0.1571943913102407
13	0xbfa3e25e1cb7a603	-0.038836422925509616
14	0xbfb7f37c9bf8fb87	-0.0935590630333377
15	0x3fb0868c579a4f80	0.06455304278125418
16	0xbfb71e739dbf9a8a	-0.09030840493469774
17	0xbfb93ed002106a50	-0.09861469316857918
18	0x3f842f9e6d739348	0.009856450762933414
19	0xbfb92f80a17e7982	-0.0983810800812304

network.0.layers.0.causal_conv.3.parametrizations.weight.original0 f8 [20, 1, 1]
0	0x3fe1e7f1425e7f51	0.5595632835647654
1	0x3fe07ba08360e97c	0.515091187094455
2	0x3fe0fafb17c1b01a	0.5306373085018123
3	0x3fe219ccfdaad24f	0.5656495050848863
4	0x3fdf8cd6d991c10b	0.49297114607817666
5	0x3fe2c0882bb98e20	0.5860024312973486
6	0x3fe2154ad02397b0	0.5650991502013678
7	0x3fe21ed922cb9b25	0.566265647849694
8	0x3fe1c3a457a656cc	0.5551320754918492
9	0x3fe15383fc54f216	0.5414447716098632
10	0x3fe1f9f7c49cafa3	0.5617636528090667
11	0x3fe1788fcd5e4752	0.5459670077418457
12	0x3fdf8d352cd7abaa	0.4929936349787406
13	0x3fdec44ee38c1183	0.48073169919396025
14	0x3fde01825b547911	0.46884211462919817
15	0x3fe20bf8e5096b1b	0.5639614556670013
16	0x3fe0ba87f8399c3c	0.5227699134965245
17	0x3fe29e1df69a8cd3	0.5818013969877945
18	0x3fe1f5b269c1a540	0.5612423005633573
19	0x3fe36699529b534e	0.6062742818272484

network.0.layers.0.causal_conv.3.parametrizations.weight.original1 f8 [20, 20, 3]
0	0xbfb7c7d7e6f9fcfb	-0.0928931178004752
1	0xbf97774e424bdfba	-0.02291605262413985
2	0x3fba237c9f755d97	0.10210398571995537
3	0xbf8acf90af9d1a2c	-0.01309121166162893
4	0xbfc38fc8ef38a3b8	-0.15282546692585952
5	0x3fadc2d3d62ec84a	0.05812704076323934
6	0xbfc2d9e91816b49a	-0.14727510143476225
7	0x3fbb5f6421876f9d	0.1069243032320046
8	0x3f7f51e8bef565fe	0.007646474040791327
9	0x3fb2c60665f3ffbe	0.07333412160005445
10	0xbfad95b97a652d9a	-0.057782932463477724
11	0x3fb2bab03c6cf84b	0.07316113925205163
12	0x3fafb23a30051bc3	0.061906641351519485
13	0xbfb3ffb43c5e3dc4	-0.07812048410254763
14	0xbfc0d5f2ed8b9255	-0.13152920340430066
15	0xbfb85d5765a9b390	-0.0951742766571455
16	0xbfa5075567a4b0bc	-0.04107157602479236
17	0xbfa577f86c4b3bda	-0.041930926532238025
18	0xbfa94eb3e691c3f6	-0.04942857923095538
19	0xbfc009dba9596e2f	-0.12530084389696713
20	0x3fbb161c73cb9b79	0.1058061392501325
21	0xbfb1bcd451a39e97	-0.06928755753653558
22	0x3fa835a1ef45e928	0.04728418393911432
23	0xbfb34a8fa319c4d7	-0.07535646182965948
24	0xbfbf2a2023aa6807	-0.12173653479331402
25	0x3fc3bedb75b58fff	0.15426200149079247
26	0x3fb446652598b99d	0.07919914405713376
27	0xbfb4149b1c9638e1	-0.07843942115707449
28	0x3fb2b1b749dfc1e0	0.07302423051419948
29	0xbfa5da4b249461a9	-0.04268107244041925
30	0x3fc376240813a484	0.15204286951419388
31	0xbfb45c2557c1e17a	-0.07953103439820622
32	0xbfc06c1324dab4a2	-0.12829818057563097
33	0xbfb09f7360c86deb	-0.06493302452911791
34	0x3f6bf6e2d9659e9f	0.0034136229179927004
35	0x3fbba1a956cf5797	0.10793550843604148
36	0xbfa77e998849e59d	-0.04588775433235102
37	0xbfc4db2118316e69	-0.16293729478171606
38	0xbf68fbf0989ee3eb	-0.0030498217720062912
39	0xbfab25bcc801729b	-0.05302228871798783
40	0xbfb646dead551b1d	-0.08701888782261986
41	0xbfb3b049e34dcb1a	-0.07690870093737737
42	0x3fb32678f457436f	0.07480579343179071
43	0xbfb919495ba8baa2	-0.09804209220667784
44	0x3fc55e7037fbe74c	0.1669445298537603
45	0xbfc15f645da8f68b	-0.1357236344646718
46	0x3fa490ab87d2178b	0.04016624482123551
47	0xbf7e33ff7019dc51	-0.007373807720447338
48	0xbf7e4a1b9898ce6b	-0.007394893452829269
49	0x3fb521fd4a8fccb3	0.08254988737444328
50	0xbf957cec11942316	-0.02098435265819195
51	0xbfa80c2cdad5c69d	-0.04696788951231421
52	0xbfb6dbe7199a83a6	-0.0892929494389266
53	0xbfb628f805aadb36	-0.08656263483395041
54	0x3fb4ccecd8bb8d9d	0.08125191012691464
55	0x3fb750d3506da7a9	0.09107704843122967
56	0x3fa5781c0168425e	0.041931986972603794
57	0xbf97c8f04e58be72	-0.023227457792187108
58	0x3fb5a9eea1382b1b	0.08462420879383752
59	0xbfbff0836824e749	-0.12476369183141602
60	0xbfa2b73672770228	-0.03655405185009314
61	0x3fb3af61855344f3	0.07689485077868934
62	0x3f943eafd1fa3999	0.01977038115597338
63	0xbfac5327706e2f69	-0.05532191512528934
64	0xbfa91f1b774e7b16	-0.04906545478228545
65	0xbfbf6fe994fab156	-0.12280139815510913
66	0xbf9901a1af2a4a8d	-0.024420286480174403
67	0xbfbaecacd4782f6b	-0.10517387568705565
68	0xbf8a5a88b7ce0c70	-0.012867992505340292
69	0x3fb5a7c9175b0d06	0.08459145374495244
70	0xbfb35902e5f93407	-0.07557695498071847
71	0xbfb376ab3576dc7d	-0.07602949195175941
72	0xbfb2101b9c46d65d	-0.07055828633641555
73	0x3fb07d50677149fe	0.0644121410889866
74	0x3fa7fdd256653a97	0.0468583803618589
75	0xbf978e175c9e9a67	-0.02300297262959319
76	0x3fb832d1f61f1dee	0.09452545412852206
77	0xbfa535cfd07e1704	-0.04142617626261649
78	0x3fb108d2da568c04	0.06654088812369713
79	0xbfbc2de054673aa2	-0.11007501659990251
80	0xbf8413034fa11855	-0.00980188929328222
81	0xbfa351f70ce411ac	-0.03773471863135866
82	0xbfc04ec96246ca4f	-0.1274043779245226
83	0x3fa218d47407ffa3	0.03534568706891086
84	0xbfaffe738e6c09fb	-0.06248818505811823
85	0x3fc18b859576ed38	0.13707036779474335
86	0xbfba07c983db2339	-0.10168132275715615
87	0xbfbe84229444c95e	-0.11920372123566866
88	0x3f98bc51c623bea0	0.02415588161323845
89	0xbfc0c3c38d45f06e	-0.13097423933129754
90	0x3fbe3464e56531aa	0.11798697090598034
91	0xbfc1f86183d349d0	-0.1403924840620463
92	0xbfb9e2e7498c08cc	-0.10111852212506561
93	0xbfb7c360fa2f921e	-0.09282499416401221
94	0xbfa8b35714564581	-0.04824325679067965
95	0xbfb65ccbaf7ea197	-0.08735344919717246
96	0xbfa12ba10c2cfe3c	-0.033535988556192525
97	0x3f9334aefc1c7ba2	0.01875565923466705
98	0xbfa66ed4fb74004e	-0.043814330763780704
99	0xbf3180c4963720e8	-0.00026707458001996734
100	0xbf9922ddc3445e46	-0.02454706672969411
101	0xbf8f296216b192cb	-0.01521565086131584
102	0xbf9e8cd1c73330f8	-0.029834058554841086
103	0x3fb4bc624fd0f417	0.08099951218260092
104	0x3faf18ae670e69b8	0.060735178070177864
105	0x3fa7966b601eb1b2	0.04606948421801195
106	0x3fb181d17556a02e	0.06838711847979148
107	0x3fba8197bc9258c7	0.10353992799568622
108	0xbfa7e3226cfaae82	-0.046654773524406515
109	0x3fb68721d77dab8d	0.08799945364959978
110	0xbf518cf280c0fd0f	-0.0010712021057910947
111	0xbfb2860b82268818	-0.0723578636884955
112	0xbfb32e42ccd5facb	-0.07492463589549485
113	0x3fb55b80f4d1d799	0.08342748620074615
114	0x3f9650c9621c6153	0.021792551625453637
115	0xbfb86d9cecc9b10c	-0.0954225614638668
116	0xbfb4edbf8299f7d8	-0.08175274790298148
117	0x3fbea72d722b215c	0.11973842656437256
118	0xbfc1b9d2d5ee11a1	-0.1384833855228296
119	0xbfb0c0eaa63e52cb	-0.0654436736934471
120	0x3fb4d2a984083028	0.08133944962918405
121	0xbfbfd069936ccca5	-0.1242738709377585
122	0xbfc1d82636ae36c6	-0.1394088522906058
123	0xbfba3866c7cb680a	-0.10242311837956222
124	0xbfabd3ccba538976	-0.05435027861109891
125	0xbfb386ff09b50356	-0.07627862917889891
126	0xbfc186fa509d3051	-0.13693169532996533
127	0xbfbb35f3a7626a4f	-0.10629198872121857
128	0x3fc17603bbe9a370	0.1364140193502652
129	0x3fa5c7418b1a514d	0.042535827856371534
130	0xbf9aa3bd70343d5e	-0.02601524350489847
131	0x3fb0e1277cd151b4	0.06593558118158321
132	0x3f775bcc957be43b	0.005702780872291642
133	0xbfa0c2ba7eb19250	-0.032735660520107346
134	0x3fa8f4f70d7d8712	0.048743935009737296
135	0xbfbf3367b72e2ba6	-0.12187813017059898
136	0x3fb700cbfd74a8b3	0.08985590875514297
137	0x3faa61ed7e6db656	0.05152837913815904
138	0x3f3fc490f7c77605	0.00048473872427998193
139	0x3fb957fba4e60bad	0.09899876380772694
140	0xbfb950d1f5aaf560	-0.0988894676947516
141	0x3fae59ce185f05f5	0.05927890822887242
142	0x3fb0e294e3480ff9	0.06595736073364823
143	0x3fb3383b0afa24bb	0.07507676141735235
144	0x3fc2cdaf6c2e91a0	0.14690201551742366
145	0x3fc1bc2986e8cca3	0.13855475509044365
146	0x3fab2447825ae604	0.053011164343342215
147	0x3f99d6d92e6cf1c7	0.025233643969146315
148	0x3fada67c4bdd33f6	0.05791080881190418
149	0xbfb58b3e4ea8f918	-0.08415593548213385
150	0xbfa94369ed4860b4	-0.04934245130078932
151	0xbfa68ffc9d4f31e3	-0.04406728191642963
152	0x3f97d960c4b42aae	0.023290168767781942
153	0xbfc0c38a1d3569b0	-0.13096739221766773
154	0xbf61354259335aa8	-0.0021005912654844146
155	0xbfa38a148b08b9ba	-0.03816284367745788
156	0x3fb23036b3e8b79b	0.07104818241415815
157	0xbfc124008c6fb646	-0.13391119820828318
158	0xbf7c7e56ff0634f2	-0.006956424549924055
159	0xbfb158b74d125eb0	-0.06775994903216076
160	0xbf9a13c63fd3c8fd	-0.025466058393200253
161	0x3fbbb298168796eb	0.10819387960472297
162	0x3fc3fbc3ded3490f	0.15612076168196906
163	0x3fbd074da88dbab1	0.11339269032553535
164	0xbfb0b8be5fb4aa0d	-0.06531896435323166
165	0xbfbccccc6348d120	-0.11249997543274448
166	0xbfb1af015fcebbba	-0.06907661999751627
167	0x3fa7da3dc243f179	0.0465869235649476
168	0xbf90508d16ab8af3	-0.015932278164551183
169	0xbf99594569e4d3ae	-0.024754604900596604
170	0xbfa5d1171112d187	-0.042610855898064286
171	0x3fa889c00572a0a0	0.04792594973088282
172	0x3f9a23448074a22d	0.02552516016035804
173	0x3f8a9209d0ad3cb6	0.012973858528907516
174	0xbfb294a2057585e5	-0.0725804580047434
175	0x3fa151880393a87a	0.03382515948926908
176	0xbfaeb61b676247aa	-0.05998311650286266
177	0xbfb41679a5731f5c	-0.07846794404315233
178	0xbfb668b6e6442889	-0.08753531572088681
179	0xbfb8f15fd043e2ec	-0.09743307909583238
180	0xbfb845b0c2c131eb	-0.09481339220764766
181	0xbfa95374c57870c7	-0.04946484480407914
182	0xbfbe6e367943cb8d	-0.11886921368186006
183	0x3fa14932a4fee695	0.03376158012492884
184	0xbfb38993f3aaa04c	-0.07631802271737448
185	0xbfb999ed34952048	-0.10000498327019713
186	0xbfb55ddff6bd51a6	-0.08346366666712032
187	0xbfadc3b66188f903	-0.0581337923108425
188	0xbfb8c0aa4f9b0fb4	-0.09668983882426013
189	0xbfb7c9caaa5bcce3	-0.09292284640450847
190	0xbfc27a2e2a93e948	-0.1443536479853924
191	0x3f9fd95d2b16b2a2	0.03110261512272195
192	0x3fb5685052b8cbdd	0.0836229516942661
193	0x3fc0859250576222	0.12907627985875175
194	0xbfafebf8935a39e9	-0.06234719084487834
195	0xbfb989e678f88a9c	-0.0997604413355852
196	0x3fb324ffd992d8c2	0.0747833162484737
197	0x3fb0599e92185cf1	0.06386748377586905
198	0x3fb112972ea9d995	0.0666899193691733
199	0x3fb9a3b592e60c20	0.10015425526039268
200	0xbfb26b24b57aabb0	-0.07194737845081423
201	0xbfa75ff9db0570bb	-0.04565411375617275
202	0xbf88cca0d08509ef	-0.012109047282710754
203	0xbf855dfabf7a8d73	-0.010433157890765021
204	0x3fb531444cb64594	0.08278300164081137
205	0xbfbec67385576918	-0.12021562581449918
206	0xbfb151d8ccbd637e	-0.06765513418703326
207	0xbfb872cbdcbcb660	-0.09550165309038894
208	0x3f9a2a3a7317ac12	0.025551713251768922
209	0xbfbd22b64e3af580	-0.11381091508788721
210	0x3fbaf24e6b9590e4	0.10525980116432582
211	0x3fbe9e35d76539bf	0.1196015978687006
212	0x3fa098bb311d0fa1	0.032415246720602704
213	0xbf9f1c08ca819275	-0.03038038002013584
214	0xbfa95d5e709b0da8	-0.049540473218736836
215	0xbfabce230550a794	-0.054307073973475145
216	0x3fb6fad06f86ff9e	0.08976462099872015
217	0xbf71ec58368d4d04	-0.004375786383053585
218	0x3fa9cad6fc32f3b1	0.05037566975213482
219	0xbfbea6b3ec770356	-0.11973118327206342
220	0xbfc388c5641fcff1	-0.15261142147903642
221	0x3f93eefd4eb35e6a	0.01946636002398209
222	0xbfbe623982804cac	-0.11868628917754859
223	0xbfbe6179438367d0	-0.11867483042024607
224	0x3fabd6172b316f1c	0.054367755911441246
225	0xbf61560c227cf4d1	-0.0021162259107812905
226	0x3fae67dfb78e14d6	0.059386244923226236
227	0xbfb4e0530b5d2911	-0.08154791858138234
228	0xbfb50c29c6a80989	-0.08221684551248222
229	0x3fb2550cb40bcfaa	0.07161025424630788
230	0xbfbf69193b0b4691	-0.122697426714945
231	0xbfbaa6f8293f36d0	-0.10411025053982859
232	0xbfc3c4150692d5c6	-0.1544214517686397
233	0xbfa1b2f78ef72081	-0.034568535043548294
234	0xbfb1bb85be12409d	-0.06926761522686538
235	0x3fa3524e388aec19	0.03773731651514129
236	0x3f74033d6c60e4bd	0.004885902342772028
237	0xbfc1dd884d7c43ab	-0.13957313331095852
238	0x3fbb4daae7f9c136	0.1066538635584536
239	0xbfc3ccf2067a956b	-0.1546919376025174
240	0xbfa2ef8ac853cfb3	-0.036983811334635595
241	0xbfc286a00725868f	-0.14473343228296584
242	0xbfbfb9a354a7cf35	-0.12392636124405672
243	0xbfa9d57e7bd3e562	-0.05045695554322084
244	0x3fb07fd698dcd82b	0.06445065719603409
245	0xbfa8f427cdf61e1e	-0.04873775853326044
246	0x3fbcbcdef43d24a2	0.11225694144117651
247	0xbfbc71446a4c8513	-0.11110332102954983
248	0x3fba51ea7d1317ce	0.10281243852213537
249	0xbf67be62977fc3c9	-0.0028983998890841117
250	0xbfbde04b38a929c4	-0.11670370229072718
251	0x3fc0b847ae101813	0.13062377928889699
252	0x3fa1dc929ebc002c	0.03488596141505726
253	0xbfb6316cacca2e7e	-0.08669165819645205
254	0x3f913785342f1771	0.016813355741553907
255	0x3fb9bfd733436461	0.1005835056452198

network.0.layers.0.residual_resample.weight f8 [20, 1, 1]
0	0xbfd833c5773f8919	-0.3781598724873603
1	0x3fd8bac2b8bdfa8b	0.38639896432133786
2	0x3fe615ede2bc5f59	0.6901769092973878
3	0xbfd4ddec7cb14689	-0.32604515244484183
4	0x3fe098b0d66d7191	0.5186390102422128
5	0x3fead22d93b495cb	0.8381564984198858
6	0x3fdf2031e4035bbd	0.4863400198641406
7	0xbfeb2bcbea6ff5f2	-0.8490962580542016
8	0x3fcc6ace36d1aa84	0.22200944592198735
9	0xbfe29ac4958222ec	-0.5813925666890021
10	0xbfdc05be751f32e8	-0.4378505843895213
11	0x3fe320dbb5f7c55f	0.5977610162791896
12	0xbfdc834cb3d6fab3	-0.4455138927695927
13	0xbfeca55a821ac257	-0.895184759245306
14	0xbfebbf02bf314f66	-0.8670667394858185
15	0x3fed9b5d84c9d6cd	0.9252154916309451
16	0xbfe7008d1e0940b8	-0.7188172899859842
17	0xbfd0f1239a362828	-0.26471796092721656
18	0x3fc3e74d29dc9253	0.15549625915550055
19	0xbfb59684d625890b	-0.08432798603238127

network.0.layers.0.residual_resample.bias f8 [20]
0	0x3fe32edfe09147a0	0.5994719873508423
1	0x3fd9142daa7288d3	0.39185659070257123
2	0x3fd922ebce1d4c2c	0.3927564156376231
3	0x3fde547f2387f2c2	0.47390726537541294
4	0x3fe8bfb2f491ecfe	0.7734007622488261
5	0xbfcef50a9cac7080	-0.24185307169034687
6	0xbfea3c4b714ab9bc	-0.8198601925594668
7	0xbfead6440bbfded1	-0.8386554936868952
8	0xbfe80abf1bf0e9b0	-0.7513118310665075
9	0x3fe57f3848eb019f	0.6717797683887062
10	0xbfe7d1ab4e5cf023	-0.7443443804290876
11	0xbfc5e14f524b0930	-0.17093841093271456
12	0xbfdb1ce37205610b	-0.4236382115827985
13	0xbfe086947148761f	-0.5164282047805421
14	0x3fd2ee6e8662d5a3	0.29580271838798405
15	0x3fe9e7e1a363c0b0	0.8095558348850513
16	0xbfeed3e0aa0c130c	-0.9633639641984657
17	0xbfe4ea99ef3a9ccb	-0.6536378548088576
18	0xbfb4df9895cde62f	-0.08153680474597345
19	0xbfb46b2cbfa52761	-0.07976035765491708

network.0.layers.1.causal_conv.0.bias f8 [20]
0	0x3fbc7b9b25e0d6d4	0.11126107859385154
1	0x3fbc47f7c30a73c1	0.11047314178217872
2	0xbf5701c8152a700a	-0.001404233353844655
3	0xbfad34b26f2ecf65	-0.05704267127239752
4	0x3fb5de05fb513b03	0.08541905770946916
5	0xbfb44fabf0da4868	-0.07934069280807565
6	0xbfbe378ff5ea170b	-0.1180353141190517
7	0x3f803cbf6783a45c	0.007928366991523265
8	0xbfbb500d018c77ef	-0.10669022834596807
9	0x3f76e339a58646de	0.0055877925700699976
10	0xbf92a61583132100	-0.01821168530003181
11	0x3fb6bf923aeeb5b2	0.08886064471035729
12	0x3fba38a6a730c169	0.10242692548559308
13	0x3fa6f4097cd4d8c1	0.044830605018817866
14	0x3fbbc7b1f8120c42	0.10851585680397682
15	0xbfa35d0e85936787	-0.03781934147418924
16	0x3f9de53fa1550db9	0.029194826337755695
17	0xbf9f623317c63e07	-0.030648039175103416
18	0x3f6687cfb3732d6c	0.002750306764573265
19	0x3fabae77a6dee972	0.05406545555111365

network.0.layers.1.causal_conv.0.parametrizations.weight.original0 f8 [20, 1, 1]
0	0x3fe14c3cbeddcdb2	0.5405563094959034
1	0x3fe0e3b575f28c62	0.5277964881573889
2	0x3fe05b7369255fb8	0.511163430560365
3	0x3fe1ac2adab45bdf	0.5522665282795706
4	0x3fe105d54047b708	0.5319620376082819
5	0x3fe4d272fbe0773a	0.6506895942181707
6	0x3fe195b73c54b87f	0.5495258501375843
7	0x3fe1314e6364cf7d	0.5372688237462026
8	0x3fe0b23f6a848896	0.521758754770661
9	0x3fe2c7d09932a07b	0.5868914596694731
10	0x3fe38196bb3f7f73	0.609568944662881
11	0x3fe0bbe4ea43b8ba	0.5229363036612746
12	0x3fe41eaf690a4b98	0.6287457515303343
13	0x3fe10df0cd4368ed	0.5329517373131957
14	0x3fe0ba958f26866f	0.5227763935001358
15	0x3fe23dd678177c0b	0.5700485559026459
16	0x3fe2300d02de3a41	0.5683655792252652
17	0x3fe2835b21b051ad	0.5785346658690763
18	0x3fe2e64a1855e94b	0.5906115031532776
19	0x3fe231a6847058d6	0.5685608469673535

network.0.layers.1.causal_conv.0.parametrizations.weight.original1 f8 [20, 20, 3]
0	0xbfa4581ea155750a	-0.03973479957014987
1	0xbfb65e7d81f2a021	-0.08737930700829157
2	0x3fae7d2d6a07696b	0.0595487777643083
3	0xbf9cc6661c96dbb5	-0.02810058164115122
4	0x3f9ce79f7365e9e9	0.028227321070042697
5	0xbfb145e4f4a04ced	-0.06747275326079079
6	0x3fb73d2b6ef45ef5	0.0907771249661627
7	0x3fb3c84c25d3090b	0.07727504657217225
8	0xbfb1634b65845da7	-0.06792136410182668
9	0x3f9a91a009289de6	0.025946140822410778
10	0x3fb7c880a83e9d6a	0.0929031763795273
11	0xbf9f0981cd86ebbe	-0.030309703988432572
12	0x3fb93da1246ea87d	0.09859664096316752
13	0x3fa68e0685e4e182	0.04405231842469261
14	0xbfad5889b23f9b2b	-0.057316115387769116
15	0xbfa5c2e92fd50931	-0.04250267704857647
16	0x3fac7d7e213cc613	0.05564493327836941
17	0x3fbd7197f76534bc	0.11501455106663888
18	0x3fc0efa1b213f2a9	0.13231297679148682
19	0xbfa53d4aff0ae82f	-0.04148325312912992
20	0xbfbc29fc7a39f00a	-0.11001565918007841
21	0x3fa25fac9d28cede	0.035886186775682324
22	0x3fb665cb940a7373	0.08749077190664227
23	0xbfbc3bb6a8b95b21	-0.11028615588416503
24	0x3fc116fb1182e515	0.13351381640476548
25	0xbf81aae81e4d9fd4	-0.00862675993421639
26	0x3fb7d7c0b68bfbc8	0.09313587624272579
27	0xbfb54b2cad308c0a	-0.08317832210791223
28	0xbfa87d1240a6b0c3	-0.04782921828459188
29	0xbfaaf8d2d309a33d	-0.05267962289946702
30	0x3fa31e36220c1825	0.037339870124967235
31	0x3fa0f3397e88a795	0.033105656333943724
32	0xbf9b17077af8e430	-0.026455037003163706
33	0xbfacc4480836b8a4	-0.05618500805154383
34	0x3fa7d0834a134662	0.04651270179023183
35	0x3f9f28acf5fbdd81	0.030428602708494793
36	0xbfbdc006c3a7932a	-0.11621134068225261
37	0x3facf00c4524be54	0.056518920364734854
38	0x3f864a6a5a651939	0.010884123691209712
39	0x3f9aee6f9b55fdab	0.026300186019850774
40	0x3fbb4c0116892ce8	0.10662848282042925
41	0x3fa943e0459584e6	0.04934597825445923
42	0xbfa5c72b5552fe99	-0.042535165944625315
43	0x3f90e15535747cbd	0.016484576594959267
44	0xbf637fa8dd30790e	-0.0023802087903411822
45	0xbfb5b20cc94e54fd	-0.0847480765790642
46	0x3fbded2ad72bb063	0.11690013650121638
47	0xbfa5c09f1359dc47	-0.042485209572014564
48	0xbfc13ca831d2bd0d	-0.13466360504887867
49	0x3fc00a0cfe0fe41d	0.12530672459959727
50	0x3f990bb3b83f43c1	0.0244587022023699
51	0xbfb3a2ad10e7a3d4	-0.07670098936763675
52	0x3fb93532694861ac	0.09846797056559947
53	0xbfa2c81d563b3a88	-0.036683003212250986
54	0xbf9a4fee30953f62	-0.025695535388251207
55	0xbfb3195b6ccc8334	-0.07460566908094962
56	0xbfb95e1d641e72af	-0.09909232801733013
57	0xbfaeaee6e956df2a	-0.05992814634686135
58	0xbfa1786836114870	-0.03412175807956508
59	0x3fb6660c8fdabb69	0.08749464523383
60	0xbf78911ef5430f6f	-0.005997773103619027
61	0x3fb11044255461e4	0.06665445243232387
62	0x3f7a206f5b2a4a82	0.006378588661976383
63	0xbf9b237fe9d8b194	-0.02650260796342392
64	0x3fa2f4bb9f4411df	0.037023413840902235
65	0x3fb79b378ebc0c06	0.09221217379312927
66	0x3fbc84f6385bc366	0.111403836020839
67	0xbfb11c998d345388	-0.06684264848111188
68	0x3fb76a0ed735e657	0.09146206621326179
69	0x3fa3c1e0975eca9f	0.03858854148656587
70	0x3fa7f9405db32847	0.046823512495010315
71	0xbf961cc716687480	-0.02159415315883395
72	0xbfc00cb425dbaf34	-0.12538768623869034
73	0xbf9dfc5d96d1e98a	-0.029283010797806187
74	0xbfab6f0100606e35	-0.05358126763914265
75	0x3fb8bf5d7873ac10	0.09666999998778203
76	0x3fb2f762aac188ba	0.07408730191085314
77	0xbf90e3eee916a610	-0.016494496323195718
78	0xbfa8b1458aa01e26	-0.048227475330403544
79	0xbf99f462ecc05268	-0.02534632272734641
80	0xbf76bceb0681f07c	-0.005551260059402204
81	0xbfab8f338a0e8f27	-0.05382691440834569
82	0xbfb8a5db3c9a6146	-0.0962807677227647
83	0x3f8f079af9beb4cb	0.015151224848376185
84	0x3f64cc85dfa24abf	0.0025389303892294486
85	0x3fc0fdd0b8d41318	0.13274582886528985
86	0x3f8f992f88b7428b	0.015428897247063552
87	0x3fb5ceb29765fbae	0.08518520542382532
88	0x3f9dad39fe159fd3	0.028981119282803846
89	0xbfaa12e98487273a	-0.05092553847096189
90	0x3fb2ba8237905c8b	0.07315839630642722
91	0x3fa0a356e7fa809b	0.03249618131417372
92	0xbfa526ea3b08430d	-0.04131252260788729
93	0xbf9baa83fd45a91c	-0.027017652829649838
94	0x3faebbe8d90eeda5	0.060027386185051136
95	0x3fb42068c83bd3df	0.07861952675359828
96	0xbfbbbf07bbe15ebd	-0.10838363968775418
97	0xbf9be14a565a5a95	-0.027226602097096892
98	0xbfaec0b9fed87c5d	-0.06006413684757981
99	0x3fbaeff271301223	0.10522380126355606
100	0xbfbe23793c04973c	-0.11772878375321921
101	0x3fc23270644bc65e	0.1421642770506421
102	0xbf967271f196f9b9	-0.021920948381870285
103	0xbfa7335f1cd3ffbc	-0.04531380869775556
104	0xbfa0faea4c0c9572	-0.033164331229538116
105	0x3fbab4a13826639f	0.1043186914524896
106	0xbf6d3603269ec4a6	-0.0035657941379772682
107	0x3fb810c66c33fd42	0.09400596753765902
108	0x3fa4fb9bd2db09a0	0.040982121934138194
109	0x3f7e34a0450137ab	0.007374406865052234
110	0x3fbc5eb331027d28	0.11082000681425497
111	0xbfb040fad5449631	-0.06349151331650017
112	0xbfb4a6d6da364a55	-0.08067076518481404
113	0x3fbdaa9ad98fa73c	0.11588447391082196
114	0x3fc2179118f121f9	0.1413442012583486
115	0xbf6f3ab182b31536	-0.003812166881831526
116	0x3fa4f361bb1b908c	0.04091935547856548
117	0x3fb555a4718425da	0.08333804866210617
118	0x3fa5ea72ce7aff5b	0.04280432482255377
119	0x3fb0c69e9a93f268	0.06553069375872556
120	0xbfa8c495343eb761	-0.048374807956277584
121	0xbfb5c43133764ac8	-0.08502490526579287
122	0x3fa6e952c2350acc	0.044748865324910264
123	0x3f8a0f92883405f3	0.012725014478294638
124	0x3fb9efd5d1281621	0.10131584507333759
125	0x3f7997fbd22c60fb	0.0062484585530671
126	0xbfba0a6b7178da97	-0.10172149200739465
127	0x3fb4e64fd328b5c7	0.08163927941560366
128	0xbfac5bf2dc2d2afe	-0.055389012696272374
129	0x3f9ff9aad968ddbd	0.031225842971449803
130	0x3f7e51da23ccb33b	0.0074022790038668585
131	0x3f7705f2c1cc8157	0.005620907086978675
132	0x3fc1cd98a488a9d8	0.1390867999446772
133	0xbfb3cd1fd7bbd174	-0.07734869973120856
134	0x3fb3349ea2ac5ddd	0.07502166244045534
135	0xbf5cc8543e39b505	-0.0017567465482913336
136	0x3fb37553812bfb24	0.07600900558098239
137	0xbfa183f48a0468e6	-0.034209863517576086
138	0x3fb2711cbdb99930	0.07203845626790861
139	0x3f9c390482737cb8	0.027561254942040064
140	0x3fa08d342bfa0a65	0.03232729946923455
141	0x3fab1f0d50d50893	0.05297128307076195
142	0x3f75ee629e8a5a33	0.005354294997820963
143	0x3fb859a4c2f0a4d0	0.09511785277631479
144	0x3fba960d383359c0	0.10385210630497621
145	0x3fb8537d96747f43	0.09502396510333448
146	0xbfa18372aec91ade	-0.03420599349606389
147	0xbfc26836d8d0c437	-0.1438053663892178
148	0xbfa9af7f8075aab9	-0.050167068892581886
149	0xbf9c78080777d6a2	-0.027801633315866277
150	0xbfb5d271de61f4ad	-0.08524238280547776
151	0xbfb77e7d3ea10853	-0.09177382258443005
152	0x3fabe12cf7fccac5	0.05445232894125732
153	0x3f8f4cb80e7caf1a	0.015283048574552139
154	0x3f9355182593344f	0.01887929658260062
155	0xbfbe44340e570174	-0.11822820043653853
156	0xbfacaf9a92bcf2ba	-0.05602725068317711
157	0x3fa49e48c056da90	0.04027011249438772
158	0x3f978a1634ef75ab	0.0229876966294477
159	0xbfa37505432b400a	-0.03800217099126264
160	0xbfa3a912988fb3ab	-0.03839929687806117
161	0xbfb2766377e63f52	-0.0721189658854631
162	0x3fa86c5e42239a8b	0.047701783727281365
163	0x3fb0c3af6702029a	0.06548591866340772
164	0x3fb4035cadce57ce	0.07817630046187604
165	0x3f980cbf2b2c8de9	0.023486125002035427
166	0x3f495155e82eef41	0.0007726354091270664
167	0xbfba0438b23ac38b	-0.1016269145136574
168	0x3fb53fe701f9cfd6	0.08300632284391382
169	0xbf90f065e2ba9b70	-0.016542045558391505
170	0x3fb2a203497650ef	0.07278461974630422
171	0xbf98a39ae0d71fc9	-0.024061603520550343
172	0xbfb6673e87f0d3a2	-0.08751288241258107
173	0xbfadf2d385847360	-0.058493242310055704
174	0xbf958549f4598d65	-0.02101626924412638
175	0xbfbcd8246af6a850	-0.1126730691090938
176	0x3fbe0a249ae04045	0.11734226971771118
177	0x3fab471511a4de5c	0.05327668991452292
178	0xbfa50a2983476b68	-0.04109315612341541
179	0xbf7205204c9c35bc	-0.004399419945696644
180	0x3fc2aa8263f54edd	0.1458285320355718
181	0x3f4bcd51db8eee0e	0.0008484506316714395
182	0x3f8dafdc7970e5c6	0.014495584922871962
183	0x3fafbed81cb16fd8	0.06200290060289121
184	0x3fa1b514cb8cfbf2	0.03458466515302651
185	0xbf67abc683c81dfa	-0.0028895261041303995
186	0xbfb686f888bf719c	-0.08799699152536394
187	0xbfc299bdfe0900c9	-0.14531683830319356
188	0xbfc0244e3d31e432	-0.1261079596331754
189	0x3fba69f9228205d7	0.10317952244260852
190	0x3fc1ff23e472ecd6	0.1405987611268304
191	0x3f9c7db90d7f5fbe	0.02782334465868507
192	0x3fbcd0e2e402e21a	0.11256235186272825
193	0x3fb8cc1b4ac5c251	0.09686441970348737
194	0xbf7664454f73cd41	-0.005466719382855091
195	0x3faeac62f5afbd5f	0.05990895508864002
196	0xbf8597e6af0c4c3e	-0.01054363462166041
197	0x3f9f1880eea7674d	0.030366911474494263
198	0x3fb2d0ea31e9aecb	0.07350028723311224
199	0x3f76684e36b24dd6	0.005470567247488364
200	0xbfb8d4d18d34c14c	-0.09699735352910926
201	0xbfab804427f04976	-0.05371296870738977
202	0xbfa7f8791ff4c00f	-0.046817574644933406
203	0x3fb81f6ecd4a7551	0.09422962676986414
204	0xbfc291673db54227	-0.14506235611999438
205	0x3fa3446db32655f2	0.037631443137040935
206	0x3f6e0b43f1e2fe46	0.0036674811409225542
207	0xbfb89f5f22867b57	-0.09618181794074353
208	0xbf9a9463de8f0a06	-0.025956688364894752
209	0xbfac2e67714a45cf	-0.05504153497635011
210	0xbfb60c7fe62f3b92	-0.0861282288526424
211	0xbfb4878ad13f18f6	-0.08019321068340787
212	0x3f9fe75b7906adcc	0.03115599561867359
213	0xbfb76af975101ac1	-0.09147605045300634
214	0x3fb0d1710ce4c47f	0.06569582524095273
215	0xbfbba6ad2432c492	-0.10801202901599741
216	0xbfb493ca6924925e	-0.08038010661091152
217	0xbfb860b87d6364b8	-0.09522584019886693
218	0x3fa463ccd706b8d6	0.03982391476471185
219	0xbfb0788fd15273f5	-0.06433962688829793
220	0xbfb4ba84e30fedd8	-0.08097105544577887
221	0xbfaa8ecd832d7b18	-0.051870748770616426
222	0x3f94019b1909a86f	0.019537375834638156
223	0xbfa9379716cb2cc9	-0.04925224450342964
224	0xbfa9941f77fe964d	-0.04995821323181513
225	0x3f7cca73bb45aa88	0.007029010845466595
226	0xbf9f1e8ae5a900b0	-0.030389948146194612
227	0xbfa4e66f987385d2	-0.04082058654763511
228	0x3faf60659e8c4c96	0.06128232536698268
229	0xbf795de989205d8f	-0.006193077324517473
230	0xbf756da24ff18fe3	-0.005231508285849148
231	0x3f907c5204374fd9	0.01609924460156251
232	0x3fa9488c09e1e3eb	0.04938161488184519
233	0xbfb403872c61dca3	-0.07817883332778534
234	0x3fa50c03fc0a24ec	0.04110729648261632
235	0x3f7bb3ca4b0871bb	0.006763258178150651
236	0xbfc005b9b2e87c59	-0.12517472491979012
237	0x3fb877f418d24224	0.09558034521092701
238	0x3fb3c5aead909fd8	0.07723514306473989
239	0x3fb8048c040fe22a	0.09381938075228705
240	0x3f91aefc4023f654	0.01726907865030676
241	0x3fabbf05c5c4f9e5	0.05419176139047347
242	0x3fb1fa90fe66d04a	0.0702295895669646
243	0x3f729aa7a31bbad3	0.0045420215917448435
244	0xbfc024b3f0d2600e	-0.12612008341670883
245	0x3fbea0aa7aa72949	0.11963906759698263
246	0xbfb7705e4e40f5a3	-0.09155835543147943
247	0xbfa5378a450c29ba	-0.04143936245789655
248	0x3fb0b7d8fd4f2b11	0.06530529197986491
249	0x3faba68fd8addc14	0.054005141449060684
250	0xbfa24507538a897e	-0.035682896564384045
251	0x3fa20846d4f91907	0.035219396112141914
252	0x3f7b785fca663e98	0.006706594640845907
253	0xbfb400f358ceee75	-0.07813950460598014
254	0xbf96d4a7478dcb86	-0.02229558347921625
255	0xbf992dd3e10982d5	-0.024588881120851298

network.0.layers.1.causal_conv.3.bias f8 [20]
0	0xbfc02dcca8b61e9f	-0.12639768827306327
1	0x3fb5d0c6a7016653	0.08521691872865604
2	0x3f9d0f8de7540a3e	0.028379647487790864
3	0xbfc41841b7706e37	-0.15699025589934631
4	0xbf9d4bef8ef99ff2	-0.02860998449469316
5	0x3fb110db3003ef3e	0.06666345522165515
6	0xbfa004794e477d42	-0.03128413277203858
7	0x3fb092cd7b3fc097	0.06474003085145551
8	0xbfbbd6896952f914	-0.10874232121839028
9	0xbfa0afe6ac371a27	-0.032592018625610834
10	0xbfc1c6f50d7d5407	-0.1388841930262574
11	0xbfa9fb223b933f60	-0.05074412324176936
12	0xbf9484a33c47c82a	-0.020037222437118064
13	0xbfa252b7cac190da	-0.035787337780478004
14	0x3fbff3096bd2c8d4	0.12480219728857672
15	0xbf7666ff36fb5c1f	-0.005469319279391121
16	0xbfaa20c47c32f584	-0.051031246338861386
17	0x3f6e33c8f1e8d656	0.0036868023592216232
18	0x3f9f0194b906a67f	0.030279468339051704
19	0x3fa60493a2fec11e	0.043003667494647

network.0.layers.1.causal_conv.3.parametrizations.weight.original0 f8 [20, 1, 1]
0	0x3fdc3130baeed135	0.4405023408428577
1	0x3fde58dcad645d32	0.47417370732133
2	0x3fe1847b2f15d638	0.5474220199236646
3	0x3fe0ba5c7748c019	0.5227491693276561
4	0x3fe121c2a92f1e42	0.5353711418510516
5	0x3fe10b8572f8b73d	0.5326564069307335
6	0x3fe05bfde3d8663c	0.5112294626334868
7	0x3fe02010a964f43d	0.5039141949160989
8	0x3fe192490a6e1d1e	0.5491070941651832
9	0x3fe27e108018b0fe	0.5778887273677638
10	0x3fe26ef280aaab2b	0.5760433686276419
11	0x3fdf3b0304c6be73	0.48797679392280385
12	0x3fe124ada9edb911	0.5357273405950612
13	0x3fe2c5cabcba0b82	0.5866445241994003
14	0x3fe0e69ffc7b6198	0.5281524592674485
15	0x3fe2667c67cc2d72	0.5750104930206545
16	0x3fe352c8ba4f24f8	0.6038554800844897
17	0x3fdd5c1e1d453c7a	0.45874741419260767
18	0x3fdc4a632ac0ba06	0.44204024481851467
19	0x3fe149e9326b6016	0.5402723297838772

network.0.layers.1.causal_conv.3.parametrizations.weight.original1 f8 [20, 20, 3]
0	0xbfb6e11f2d73f014	-0.08937258586587432
1	0x3fb712eefe0e38e5	0.09013265326050009
2	0xbf70373ed69cb457	-0.003958936178418324
3	0xbf99281a01abcd4f	-0.02456703791808695
4	0xbfa4cb4d83ade6b2	-0.04061357719815585
5	0x3fa043751c036aab	0.031764659566495844
6	0xbfb84632c2eb89ba	-0.0948211408499792
7	0xbfa28d247bd6448b	-0.03623308192903448
8	0xbfc12da736d90496	-0.13420572450744278
9	0xbfa120eec8c161ac	-0.033454381948732376
10	0xbfb28073505915d7	-0.07227249824162328
11	0xbfa0ad6dd4082b46	-0.032573158390809584
12	0xbfc6131f0a4fe808	-0.1724585342743128
13	0x3fbba02c68a4fb9d	0.1079128032188081
14	0x3f9d1ef752c3b523	0.028438438822310574
15	0xbfaa4c36a5ac6654	-0.05136271259671035
16	0x3f9eff0fe19ee37d	0.03026985945300308
17	0x3fb1aa9a95d33cd9	0.06900945813980587
18	0xbfb6c4fdbc2908b2	-0.08894334644085936
19	0xbfad1163225e9045	-0.0567732791380711
20	0xbfae5dc7a5a7ccef	-0.059309233638396346
21	0x3fc3b89c03e07f6a	0.15407133282951274
22	0x3fbc713c98ebbca1	0.11110285504740826
23	0xbfbe0e8e24047a96	-0.11740959529240977
24	0x3fbd7e4659b2e78a	0.11520805063164921
25	0x3f90d10da8e1d575	0.016422475273846843
26	0xbfb62c6b21a1c77c	-0.08661527224628957
27	0x3fb6023d5398beca	0.08597167292532074
28	0x3fc25aba5251c542	0.14339379329207175
29	0xbfbabc45356bfc10	-0.10443527750247505
30	0x3f7b2f833b60597f	0.006637108444940031
31	0x3fc3dd3d6c22bc50	0.1551892068868903
32	0xbfa9e8fba933bda9	-0.05060564461188772
33	0xbfa29503ee8179b4	-0.036293146957848604
34	0xbfafca4671d7a9ca	-0.06209011211088329
35	0x3fad3f2c09cbd1f1	0.05712258929807835
36	0x3f8aedf1e1a29e5b	0.013149156282749866
37	0xbfb1d03eb8bbecf5	-0.06958381662473186
38	0x3f9fbec4ee707de3	0.031001164487063703
39	0x3fa945255d6d7288	0.049355666784980434
40	0x3fa632546496f1c4	0.043352734831816814
41	0x3f9d3644b5bcf5d6	0.028527330009856154
42	0xbf984a5ecf8c58c5	-0.02372120038770544
43	0xbfa84b179dfd82b4	-0.04744790843574745
44	0x3f8902447d741f7f	0.012211356237926683
45	0x3fb8e512421e6ab2	0.09724535097340484
46	0x3fb3df54b6a0d568	0.0776265092725531
47	0x3fb5f175db14f0b4	0.08571564291645722
48	0x3fb9381bd6f0c1b7	0.09851240155763362
49	0x3fb38ff4415a0e7b	0.0764153155851605
50	0xbfaa0c601eaf30f0	-0.05087566732945159
51	0x3fb96e06cac6469b	0.09933512163686446
52	0xbfafb91c21f77de2	-0.061959151407559934
53	0xbfb65951db41c2ca	-0.08730041125250945
54	0xbfacecbe90f3faa5	-0.056493716425383846
55	0xbf893e9d503d08c8	-0.012326458941633325
56	0xbf6c59fc2680dfff	-0.003460876923806921
57	0xbfbbf814276243af	-0.10925413095016155
58	0xbfba65c17ee03a76	-0.10311517093234976
59	0x3fc4956a11638058	0.16080976342255116
60	0xbfaf4012c6d10ca6	-0.061035715837101365
61	0xbf7e28e04dfab50a	-0.0073632013224316315
62	0xbfb575e9f89bb28e	-0.08383047408615082
63	0x3fb25ae8cbfe996e	0.0716996667893903
64	0x3f5e941180f8b968	0.001866356938886671
65	0xbfbecaafe70b7078	-0.12028025999774339
66	0xbfb0f4fc0c773ca7	-0.06623816780414647
67	0xbfc223c7f07c169a	-0.14171694986741984
68	0xbf8b83dbdf91167c	-0.013435094604697932
69	0x3faa887f8139ce34	0.05182264759505664
70	0x3facfaef60f0c4e4	0.05660198267322317
71	0xbfb190434e8ef8b0	-0.06860752742702192
72	0xbfaa334b7977d6ac	-0.05117259843602304
73	0xbfacd1fe070e2b62	-0.056289614068268504
74	0xbf9cffebe1cc9bd5	-0.02832001271886127
75	0xbf5b1d9749392af4	-0.0016550042536375683
76	0xbfc045f4b0e13e45	-0.12713488232337702
77	0xbfa4c2caee504739	-0.040548650351537714
78	0xbfc12a84722dc45f	-0.13411002707610728
79	0xbf991bc62f347bf1	-0.024520012503781833
80	0x3fab20e8d9523efa	0.05298545506331993
81	0xbf9ee13df77e25a9	-0.030156105261573227
82	0xbfc010a4aba24b4f	-0.12550791149677784
83	0xbfa20a01f646b22e	-0.03523260241795288
84	0xbfbbad62927b7b27	-0.10811439586857984
85	0x3faf2df6dc3ea26f	0.0608975547650673
86	0x3fb9061aeb2356d3	0.0977494072024812
87	0x3fa34cd2cebb7784	0.03769549153888277
88	0x3fb935ffbc1e0006	0.09848020880417616
89	0xbfb6392fd024bb4a	-0.08681010085704802
90	0xbf97a7a60f63694b	-0.02310046643183598
91	0xbfb8b004893ce914	-0.09643581724677502
92	0x3fb4a8b5d8dec79e	0.08069931549724038
93	0x3fb290c71deb1203	0.07252163391519421
94	0xbfb81fff4173f509	-0.09423823688480949
95	0xbf99e4b991a33781	-0.0252865786686054
96	0xbfa0774325ac2f4d	-0.0321598990904862
97	0xbfb438d882fae104	-0.07899239728692825
98	0x3f944385d42b9195	0.01978882892116614
99	0x3fa35ae63bca1224	0.03780288200235685
100	0x3f8019c8abb67679	0.007861678829438322
101	0x3f8bd413657411e4	0.013588096173870086
102	0x3fa08719c32e784b	0.03228073604189826
103	0xbfa494b2b02dec54	-0.040196975713990085
104	0xbfb73c935e6cda7a	-0.0907680612116141
105	0x3fbf479d591dce94	0.12218650270170378
106	0x3fa4300ee02e1fb1	0.03942915426802019
107	0x3fc05d865e5e3fb3	0.12785415275402343
108	0x3fb29718d43ec6a0	0.0726180570771029
109	0x3fad35ffe6c62ea1	0.05705260936801194
110	0xbf95e6919464aee1	-0.021387362177093364
111	0x3fae60cab3dda782	0.05933221288326164
112	0x3f9c4e054a6fbcc2	0.027641375225297755
113	0x3fc1540d7dcbd892	0.13537758486171875
114	0x3f64e54f873c6df2	0.0025507500921670917
115	0xbf98d2d90465faa3	-0.02424182023377831
116	0xbfa0f73575007ea6	-0.033136053593122924
117	0x3fa8a4405a817c0d	0.048128138588019544
118	0x3f9c50cd63abac68	0.027651986320887195
119	0x3f8bd137a41e8e8e	0.01358264417269275
120	0xbf98107a28a11291	-0.023500355462845738
121	0x3fad78da16e927ed	0.05756265191719465
122	0x3fa1b44561e97ea1	0.03457848377433704
123	0x3fbf1e7d63bd6fbc	0.1215589874749971
124	0xbfbde8e015aa5790	-0.11683464554729839
125	0xbf940ed92341bd21	-0.019587891365913216
126	0x3fb1a065e4bef767	0.06885372957819201
127	0x3fab2f35ce10d835	0.05309456005527161
128	0xbfb8e7e91f7844cc	-0.0972886754828039
129	0x3fb267c79a5ccf1e	0.07189605253807627
130	0x3f87c4b705dc2a16	0.011605672708829434
131	0x3fad0aa811cf633c	0.05672192780884308
132	0xbf9dc9df27189327	-0.029090391885023294
133	0xbfc27c6ada0eef2f	-0.14442191741351837
134	0xbfbc0e8ca75b79c3	-0.10959700666305765
135	0xbf93506f88578032	-0.01886152524627977
136	0xbf993f9124c5c58e	-0.024656551236551354
137	0x3fa89acad7aaf00c	0.048055971933962466
138	0xbfaf13e36617343c	-0.06069861050819056
139	0x3fa835cdb7496727	0.047285488723629414
140	0x3facfe6ed506fe53	0.05662866926604395
141	0xbfbc8f19126665ac	-0.11155850123613814
142	0xbfbc1136655626f7	-0.10963764165913036
143	0x3f91a900c8dfb5d9	0.01724625803028865
144	0x3f8078f3360d057e	0.008043193900109765
145	0xbf93a8604649df12	-0.019196991243432278
146	0xbfa53ca51734d69f	-0.04147830875664948
147	0xbfb86cb6edf051e4	-0.09540885266353133
148	0x3fa0a8178c63abbe	0.032532440078135036
149	0x3fb2a295f4b8f045	0.07279336189907422
150	0x3fb3bbba393e310c	0.07708324334652533
151	0xbf9d24521d4be681	-0.028458865202060316
152	0xbfb1151c36e49806	-0.06672836628112586
153	0xbfc0376fc1d321e7	-0.12669178928469124
154	0xbfa7d15f52c2f3fd	-0.04651925931236887
155	0xbfbd4e50572c4b34	-0.11447622421500797
156	0xbfabac1ae7921515	-0.054047432678126985
157	0xbf987b87cc4d9ade	-0.023908731312441193
158	0xbfa887d682b26504	-0.04791136117382602
159	0xbfa19aebaafe6722	-0.03438507520986735
160	0x3f9f340701a1d75e	0.030471906160946964
161	0x3fb327c04ab13011	0.07482530425585333
162	0x3f9e2848915d4b61	0.02945054423555449
163	0xbfb9769865d0126b	-0.0994658707205162
164	0x3f8a2915490e6b4f	0.012773672382356742
165	0x3f9ef5bb27c70669	0.030234264662573205
166	0xbfaf4bd9f8a1d179	-0.061125575638388115
167	0xbfb2e9ecd9163854	-0.07388191509218817
168	0xbfc04d9b1ac36518	-0.1273683434181201
169	0xbfbf8ccd5451240f	-0.1232422190525002
170	0x3fbc94201b972f98	0.11163521455381298
171	0x3fa6a3570559969b	0.04421493473345813
172	0x3fc18aec842fb501	0.13705212072765252
173	0xbfc1d87c4056c8de	-0.13941910878708702
174	0x3fbd1185c31c4d82	0.11354862225953435
175	0x3fb7dde730e4fecb	0.09322972243989651
176	0xbf72c19034478be3	-0.0045791275956359205
177	0xbfbce057732ab367	-0.11279818116845562
178	0xbfbceb3dbf89f454	-0.11296449590914054
179	0xbfabdac319cfe661	-0.05440339746560308
180	0xbfc07a2ce2e17f1f	-0.12872849538961703
181	0x3fbc6f2d551c8a0e	0.11107142761151342
182	0x3fafc34215b16381	0.06203657641226013
183	0xbfb35cc46fd31131	-0.07563426714029188
184	0x3fbf1cced652ab79	0.12153332455151923
185	0x3fa9bc7d300b067b	0.05026618205512264
186	0xbf9596ae0512854a	-0.021082610187140895
187	0x3f9f7df0757630b4	0.030753857774059326
188	0x3f94e9f4526eacd4	0.020423715144414725
189	0x3fb0670e361ae011	0.06407250233576202
190	0xbfab35a0754cb4e4	-0.05314351493721306
191	0x3fa8a1c974223c2c	0.048109336306076805
192	0xbfa907e5b01bf4f6	-0.04888837599535549
193	0xbfc17b1d59d8f38e	-0.13656966101725881
194	0x3fc010e0e229b169	0.12551508944614945
195	0xbfbd0a295c45a5d0	-0.11343630316482423
196	0xbf8f288da295fe05	-0.015214067959049346
197	0xbfa02af76aa35917	-0.03157780815824845
198	0x3fbbc5a7969f13e8	0.10848472049026692
199	0x3fa2f943b0392b58	0.03705798650897546
200	0x3fbc98d327fd4b19	0.11170692182831167
201	0x3fc0320fc06e1de4	0.12652775665286164
202	0x3f7bf4a7e616396f	0.006825118879886779
203	0x3fb3e11b2aa7d858	0.07765359679601269
204	0x3fad2a16f8d7b990	0.05696174419050515
205	0xbfba839e5df30bf9	-0.10357084077536162
206	0x3fa4de866f03a085	0.040760232020887556
207	0x3fa4c2eef49d6201	0.04054972396869872
208	0x3fb5b9e26a4f3178	0.0848676213783558
209	0xbf9611f28b862f93	-0.02155283905589973
210	0xbfa7ab8ed1a75c02	-0.04623075780153131
211	0xbfafb22edfd2cd15	-0.061906304189870344
212	0xbf8f791b63716c11	-0.015367711994420248
213	0xbfb393ee27bf2478	-0.0764759871518822
214	0xbfa215df02ae7b01	-0.03532311351522389
215	0xbfa61b10a2a1c9b8	-0.04317523942235674
216	0xbf948c0d59250411	-0.02006550652118128
217	0xbfa96f7545c742b7	-0.04967848278795855
218	0xbfa3df4d26cd29dd	-0.0388130292763724
219	0x3fb6179286767923	0.0862971857336317
220	0xbfb8acbebe2a530b	-0.09638588087757342
221	0x3fb824b5fdeb9445	0.0943101639673652
222	0x3fb682a989ee0d54	0.08793124787739731
223	0x3f9c3d441afa5b90	0.027577461382488233
224	0xbfb70ded6ca1e67b	-0.09005626585158126
225	0xbfa9b829d3021cc6	-0.05023318005356141
226	0x3fc0467cb9005179	0.12715109856857135
227	0xbfad5aa3abebd6c1	-0.057332148300628834
228	0xbf7130ff95657b89	-0.0041971191152175924
229	0xbfb649a65faf7882	-0.08706130825109606
230	0xbfbf9c040b8bdbed	-0.12347436220066728
231	0xbfab59caf8ecdc1f	-0.053419440161114766
232	0xbfaee56ad6af976d	-0.06034406538655799
233	0xbfae18e119727fe1	-0.058783563953738634
234	0xbfabddc16605b851	-0.05442623491659105
235	0x3f8a81532941e1b9	0.012941980072569291
236	0x3fbae737aec4d441	0.10509059922044718
237	0x3fac8fef450ed06f	0.05578563421241333
238	0x3f8eb03567b53364	0.014984528758441314
239	0xbfb018d0c504b1fa	-0.06287865457552036
240	0x3fb2b67e4fb65734	0.07309712835407539
241	0xbfc2021e63334739	-0.1406896576286785
242	0x3f9c6f3bc4d15e73	0.027768072021301337
243	0x3fae1a79b144119f	0.058795740975287496
244	0x3fb3298edb4394d5	0.07485287526249647
245	0xbfc26232489e88ef	-0.14362171693671352
246	0x3fa77230af7704a9	0.04579307691484164
247	0x3fb39c433026129c	0.07660312581544776
248	0xbf61eb8e7a02e046	-0.002187517428037497
249	0x3fb31cbbf9f23f22	0.07465720035747528
250	0xbfb72fda0d2b3cd2	-0.09057390996462125
251	0xbf6f5bc39464e709	-0.0038279361644101323
252	0xbfb72a1853c4514f	-0.09048606915559286
253	0x3fb358e239d66e5d	0.07557500755358988
254	0x3fa6af98cffa3da9	0.044308448207739666
255	0xbfba1df3ecca574c	-0.10201954394355289

network.0.layers.2.causal_conv.0.bias f8 [80]
0	0x3f94f5b5c59c70d8	0.02046855944273393
1	0x3f92ee636b87e00e	0.018487504423291105
2	0xbfbb2fcaea5fe48a	-0.10619800779376667
3	0xbfc1b166c7c24463	-0.13822636369562522
4	0x3fbc819720e97f2e	0.11135239175336828
5	0x3fa5debac3bd63f2	0.042714916605014155
6	0xbf9220fa17363271	-0.017703921953897642
7	0x3fb5d66434615991	0.0853026035195852
8	0xbfb0fb0a8e145a70	-0.06633058518159785
9	0x3fbeaa8577f9dbdc	0.119789449492472
10	0x3f92cfbeb832175e	0.018370609276210252
11	0x3fb7c8fc1e1d2574	0.09291053519441111
12	0xbfc1864c888c9248	-0.13691097896038884
13	0xbfb0d384d82555f0	-0.0657275226306735
14	0x3fb066e5daebc512	0.06407009691954027
15	0xbfc0b335727d498a	-0.13046901789000415
16	0x3fa75a46e2378694	0.045610633005492535
17	0xbfbfc5a89caacef0	-0.12410978150256446
18	0x3fab23308cbc23a7	0.05300285070376925
19	0x3fabf5c2ae503db7	0.054609378603454876
20	0x3fb3c9c3cc04ca2f	0.07729743700910129
21	0xbfc18c4e47d50c5d	-0.13709429271156895
22	0xbf83eb9c6e1f1065	-0.00972673617423698
23	0x3f751dfa8647c610	0.005155542956786899
24	0xbf7a785cbb5f6191	-0.006462442621306145
25	0xbfa05d7a34c041fa	-0.03196317571576297
26	0xbfbd1e7590bb56bd	-0.11374602111331007
27	0xbfc200452e636fbe	-0.14063324704227215
28	0x3f733e4ce7a18eee	0.0046980861753558156
29	0x3fb7c9f570f780c4	0.09292539604166722
30	0xbfc2ed4dbe47b0b7	-0.14786693373696888
31	0x3faeba5ef9053766	0.06001564779090422
32	0xbf9d1328b581d270	-0.028393398359599364
33	0xbfb4cec58d93dd0b	-0.08128008562549753
34	0xbfb624e6a21e882d	-0.08650056322088125
35	0xbfaefd74b6e9fd6f	-0.060527465179798116
36	0x3fc0cdadea476c3b	0.1312768358173758
37	0xbf856f2dbb966b01	-0.01046596268388589
38	0xbfa8d131f52be163	-0.0484710323125366
39	0xbfbfe38ec12e486b	-0.12456600395515387
40	0x3f803bad5e83aeec	0.007926325270509925
41	0x3fae62a90c549eb1	0.05934646869201055
42	0x3faeef366afc726d	0.06041879707320139
43	0x3fb24bb8aecf44dc	0.07146791713536821
44	0x3fb3c37892a0d379	0.07720140056410497
45	0xbfba191e0c96ba2a	-0.10194576079695908
46	0x3fc13f4414b867f9	0.13474322330222302
47	0x3fc07d3773ddf41e	0.12882130773132955
48	0xbf8082950595fed5	-0.008061565621346226
49	0x3f9a4a71ee109088	0.0256746102860608
50	0x3fb9565b0bd2cbe0	0.09897393263490484
51	0xbfad9ae7defdba46	-0.05782246205386747
52	0xbfa637a01b412c0b	-0.043393138243651284
53	0xbfa6ef6b4ab43f3d	-0.044795372838164906
54	0x3fb8773cd0f084bf	0.09556942082464824
55	0xbf9d5c01fdededcb	-0.02867129433023567
56	0x3fb4fd48f8f0bc35	0.08198982312818333
57	0x3fb428e67cdc8f67	0.07874908970239645
58	0xbfa678d0d9606bc5	-0.04389050153277866
59	0x3f9c2d0996046288	0.027515554219550015
60	0x3fac9e87986f54d2	0.055896985395216384
61	0x3fb2ced43526030c	0.07346845910616312
62	0x3fab5d76cac44325	0.05344744897059276
63	0xbfb1588900c33567	-0.06775718945137542
64	0x3fc14d6ba621a138	0.1351751862705528
65	0x3fa4b7bcc21f32a7	0.040464304634587216
66	0x3fa85fea1eeb8169	0.04760676982346263
67	0xbfbdab502086a8bb	-0.11589527887432187
68	0xbfbb014e872000fe	-0.10548868941259923
69	0xbfc2be8c719f3cc5	-0.14644008205366368
70	0x3f8f40e4519789fa	0.015260490169514352
71	0xbfb4ed3453a35ae4	-0.08174445192285479
72	0xbfbba49af2d71da9	-0.10798042706220791
73	0x3fb5ad14bf5b3506	0.08467225715431334
74	0x3fbebd450d24b813	0.12007552691349614
75	0xbfc26143da9fbe31	-0.14359329390525624
76	0x3fa248e72dc9a668	0.035712456073110854
77	0x3fb4c8f253da2552	0.0811912016598815
78	0x3fb1cb28dc7769e6	0.06950621969682622
79	0x3fa6e79f43c2cb19	0.044735886594386716
